save/DQL.pth (torch, 46679 bytes, 6 tensors)

linear_1.weight f4 [64, 129]
000000 0c 9b a4 3c 9e 71 df bc 86 be ac bd a8 54 18 3c
       0.020093463 -0.027275857 -0.08434777 0.009297527
000010 7e 61 8a bd cc 70 6a bd 74 7b 35 3d 03 7a 0f bd
       -0.067568764 -0.057236478 0.044307187 -0.03502847
000020 b0 66 34 bd a0 88 42 3b 6c 0a bd bc dc fc 4c 3d
       -0.044043243 0.0029683486 -0.023076259 0.050045833
000030 c0 ae b2 3d d8 a2 05 bc 84 72 8d bd f8 d7 45 bc
       0.08724737 -0.008156501 -0.06906608 -0.012075417
000040 01 ac 1c bd 65 5e ac bd b2 03 00 3d 14 4b 5a bd
       -0.038249973 -0.08416442 0.031253524 -0.053294256
000050 00 65 2a 3b 8b 2f b3 bd 4c 0b 82 3d c4 5a b1 bd
       0.0026000142 -0.087493025 0.06349811 -0.0865989
000060 60 27 88 bb de 96 b3 3d e4 59 1d 3d 9d fc 2c bd
       -0.0041550845 0.0876901 0.038415805 -0.0422331
000070 0a e6 93 bd 10 77 8d bb b0 c0 b4 bb 9c 52 8d bd
       -0.07221611 -0.004317172 -0.005516134 -0.06900522
000080 53 a4 a2 bd 7c f1 89 bd 70 3d 8c bd 83 3d 27 bd
       -0.079414986 -0.067355126 -0.06847656 -0.040830147
000090 1b 46 98 bd dc 57 b1 3c bc fd 03 bd 7a 36 81 3d
       -0.074352466 0.02164834 -0.0322244 0.06309219
0000a0 44 e4 65 3d af e9 a0 bd 6c 4d 3a 3d fa 3e 52 bd
       0.056125894 -0.078570716 0.04548399 -0.05132959
0000b0 a6 c2 a8 bd 14 44 94 bd 74 a6 7d bd 84 98 30 3d
       -0.08240251 -0.07239547 -0.06192632 0.0431142
0000c0 bc 07 24 3d a8 e4 73 3c b2 d0 87 3d 26 fc 9c bd
       0.04004644 0.014886059 0.06631602 -0.07665281
0000d0 e0 dc 3c 3d 8c 72 95 bc 42 64 93 3d 14 97 95 3d
       0.04610908 -0.018243097 0.07196857 0.073042065
0000e0 54 3d 0e 3d 60 35 03 3d fa 9f 98 3d 34 c8 81 3d
       0.034726456 0.032033324 0.07452388 0.06337014
0000f0 23 91 a0 bd ec 21 18 bd a1 38 3a bd 48 3f 16 3c
       -0.07840183 -0.037141725 -0.04546416 0.009170361
000100 00 eb 67 bc 33 31 9f bd 46 f7 af 3d fc 7c 82 bd
       -0.014155149 -0.07773056 0.085920855 -0.06371495
000110 10 57 76 3d a4 6c 3a 3d 08 bc 04 3d 88 af ec bc
       0.060141623 0.045513764 0.032405883 -0.028892294
000120 38 3d c3 3c 8e 3c 8b 3d 56 fc aa 3d 34 d4 9c 3c
       0.023832902 0.06798659 0.083489105 0.019144155
000130 1c d7 30 3d c3 cb 8c bd 2f 82 02 bd 08 d7 94 3c
       0.043173894 -0.06874802 -0.031862434 0.018168941
000140 72 98 8f 3d 1d 05 90 bd 57 07 af bd df 3a 48 bd
       0.070114985 -0.07032225 -0.08546322 -0.04888427
000150 10 5b f2 bc b2 26 32 bd c8 f3 cc 3c e0 bf a5 3d
       -0.029584438 -0.043493934 0.025018588 0.08093238
000160 54 4f 46 3d 2c 9c 6c bd aa 38 8a 3d d2 2e 86 bd
       0.048415497 -0.057766125 0.06749089 -0.06551899
000170 19 0f 17 bd 7b 76 85 bd 7c 69 88 3d d0 b9 5a 3d
       -0.036879633 -0.06516739 0.066607445 0.05339986
000180 3a 6e a6 3d dc 5f ab 3d cb 9b 6a bd ca ca 98 3d
       0.08126493 0.08367893 -0.057277482 0.07460554
000190 d0 73 ba bb f0 29 a0 bd 60 9d c5 3b 90 0e 3e 3c
       -0.0056900755 -0.07820499 0.0060307235 0.011600152
0001a0 e6 fc a6 3d 76 3c 7d bd 7a 8d 04 3d 32 e1 a3 bd
       0.08153705 -0.06182524 0.032361485 -0.08001937
0001b0 70 d4 e9 3b b0 68 a3 3d 08 ba 57 3d ac 12 c8 bc
       0.00713592 0.07978952 0.052667648 -0.024422966
0001c0 b0 60 92 3d 40 d6 82 3c 10 ce fe 3b 3a e1 ed bc
       0.07147348 0.015971303 0.0077760294 -0.02903806
0001d0 62 90 a0 3d 76 bf 73 bd 2a 89 9a 3d 20 37 db 3c
       0.07840039 -0.059508763 0.07545693 0.026759684
0001e0 01 d4 28 bd 15 95 9c bd 46 02 6e bd 79 dc a8 bd
       -0.041217808 -0.07645623 -0.058107637 -0.08245177
0001f0 c8 9c b5 bc f8 e3 5b 3c cc db e4 3c 76 a2 ab bd
       -0.022169486 0.013421051 0.027936839 -0.08380596
000200 c9 db 8e bd 20 58 cb bb 4a d3 09 bd be 57 04 3d
       -0.069755144 -0.0062055737 -0.033648767 0.03231024
000210 16 38 72 3d e4 cf 14 3d 61 85 96 bd 98 99 a0 3d
       0.05913552 0.036331072 -0.07349659 0.07841796
000220 a0 46 01 3b 11 7e 8e bd 00 57 22 bd 8e f4 ac 3d
       0.0019725934 -0.06957639 -0.03963375 0.084450826
000230 7a f2 03 3d 1e 86 8c bd 3b 79 2e bd 2d f0 47 bd
       0.032213666 -0.06861518 -0.042596083 -0.048813034
000240 07 cf 88 3d f0 bb fe 3b f8 4f 64 3d ff 05 2f bd
       0.06680112 0.0077738687 0.055740327 -0.042730328
000250 00 6a 75 3d 80 95 c8 3c fb 0f 66 bd 37 15 f2 3c
       0.059915543 0.02448535 -0.056167584 0.029551132
000260 54 ff 19 3d 20 ab 01 3d 9f 2b ed 3c 91 dc 5a bc
       0.037597016 0.03165734 0.028951464 -0.013358251
000270 88 fa 89 3d 64 4d 07 3d 67 ec ee bb 52 1d ed bc
       0.06737238 0.03303279 -0.007291365 -0.028944645
000280 63 a7 a0 bd 30 aa a8 bc 2a a1 24 3d 11 3a 38 bc
       -0.078444265 -0.020588964 0.04019276 -0.011244313
000290 b6 6d 19 bd e0 57 4a 3d 56 e8 34 3d 20 a0 23 bc
       -0.037458144 0.04940021 0.044166885 -0.009986907
0002a0 72 d0 85 3d 20 36 26 bb a0 3c 15 bc 8b 00 f0 3c
       0.065338984 -0.002536185 -0.009108692 0.029297134
0002b0 fb f4 d3 3c 3f 28 a6 bd 50 53 76 bd d7 cc 97 bd
       0.025873652 -0.08113145 -0.060138047 -0.07412117
0002c0 f8 dd 67 bd c8 da af bd 7d 7a 10 bd 0c 15 97 3d
       -0.05660817 -0.08586651 -0.035273064 0.07377061
0002d0 88 20 96 3c 74 53 8a bc a9 3b 56 bc d2 00 39 bd
       0.018326059 -0.016885497 -0.0130757475 -0.045166798
0002e0 34 97 3a bd e2 b5 4c 3c 73 20 b0 bb 93 cb 13 bd
       -0.045554355 0.012494536 -0.005374962 -0.036082815
0002f0 86 28 a1 bd a4 d4 4a 3d d1 8a 01 3d 20 08 6a 3d
       -0.07869057 0.049519196 0.031626526 0.057136655
000300 2e 6a ab bd 00 b1 07 3d 72 6f 0f bd 6c b5 10 bd
       -0.083698615 0.033127785 -0.035018392 -0.035329267
000310 0a 67 82 3d 89 10 04 bd a4 fc 15 bd 67 53 86 bb
       0.063673094 -0.03224233 -0.03661789 -0.004099298
000320 8c 21 84 bc e1 e2 11 3c 48 ae 62 3d 50 ae 6f 3c
       -0.016129278 0.00890419 0.05534199 0.014628962
000330 37 86 4e bc a8 76 20 bd 96 31 5d bd 63 1d f4 bc
       -0.0126052415 -0.03917566 -0.054002367 -0.029799169
000340 14 4a fb bc 1b a6 13 3d 3c ac 88 3d 23 7a 00 bd
       -0.030674972 0.036047082 0.06673476 -0.03136648
000350 84 bf 51 3d d2 68 08 bd 00 3c ab 3b b0 22 06 3c
       0.051208034 -0.03330309 0.0052256584 0.008186981
000360 90 9c b5 3c 65 90 33 3d 16 9e 1e 3d ac 6b ab bd
       0.022169381 0.043838877 0.03872498 -0.08370146
000370 62 af 86 3d e0 cb 04 3d d9 da 67 bd be 50 4f bd
       0.0657642 0.032420993 -0.056605194 -0.05061411
000380 d4 03 d5 bc 28 60 3d bd e8 6c 29 3c 83 83 20 bd
       -0.026002802 -0.04623428 0.010340907 -0.03918792
000390 1c 91 f4 3c d0 52 44 bd c8 83 33 3d 2a e5 99 bd
       0.02985435 -0.04793054 0.04382685 -0.07514413
0003a0 4f 43 f7 3c 10 6a f8 bb 88 ef 65 3d de 01 12 3d
       0.030183462 -0.007581003 0.056136638 0.035646312
0003b0 77 4f ac bb d6 88 b2 bd b1 26 90 bc 3d 58 ab 3d
       -0.0052584964 -0.08717506 -0.017596575 0.083664395
0003c0 b5 5d a5 3d 34 23 65 3d ee 4a 1f bd e8 99 54 3c
       0.08074514 0.055941775 -0.038889818 0.012976147
0003d0 6c c2 cb 3c 61 86 93 3d ca ad 31 bd 5e c1 ac 3d
       0.024872981 0.07203365 -0.04337863 0.08435319
0003e0 b4 06 75 bd 82 48 a0 3d c1 bb 85 3c 9f 43 66 bd
       -0.059820846 0.0782633 0.01632488 -0.056216832
0003f0 9f 4d 5f 3d a4 d2 71 bd d2 54 0c bd 65 05 4f bc
       0.054517385 -0.059038773 -0.03426058 -0.0126355635

linear_1.bias f4 [64]
000000 06 d9 10 3d ee be 6b 3d 79 f2 d2 3d 38 7d 5e bd
       0.03536322 0.05755513 0.10300154 -0.054318637
000010 aa 9d 03 bd f4 ea a3 3d 01 95 9e bd 49 c6 a9 bd
       -0.032132782 0.08003798 -0.07743264 -0.08289773
000020 19 7a be 3d 76 4b dc 3d 6a 58 08 3e 16 31 6a bd
       0.09300632 0.107565805 0.13314977 -0.05717572
000030 9f 36 5a 3d 61 b1 95 3d 0c 24 ac bd 00 55 14 ba
       0.053274747 0.07309223 -0.08405313 -0.0005658418
000040 f0 6c 93 3d 3b 9b 02 3e f4 f1 86 3d 6a b1 2f 3e
       0.071985126 0.12754528 0.06589118 0.17157522
000050 af cb e6 3d 4c 56 ac bd 22 41 56 bd 9c ff 96 3d
       0.11269318 -0.08414897 -0.05230821 0.07372972
000060 04 77 54 3d 02 30 08 bd 70 3f b9 3c 11 57 39 be
       0.051871315 -0.03324891 0.022613257 -0.1809962
000070 00 77 e9 bd a3 c9 16 3e d1 fc ff bd e2 86 3f be
       -0.113996506 0.14725356 -0.12499393 -0.18703797
000080 c3 74 c8 3d 71 fa e7 3d d7 66 15 3e 36 27 47 bd
       0.097878955 0.11327065 0.14590012 -0.04862138
000090 bb b2 df bd 58 05 69 3d 2e 14 35 3e a7 6b 63 bd
       -0.10922762 0.05688986 0.17683479 -0.055522587
0000a0 87 60 21 bd 55 5e ef 3c 60 ac bd bd 60 62 1e 3d
       -0.039398696 0.029219786 -0.092613935 0.038668036
0000b0 f7 0c 7c 3e fb 0f 3c 3e d9 de 77 bd df 2f 37 3e
       0.2461432 0.18365471 -0.06051526 0.17889355
0000c0 8f 6d 23 be 7f 0f ed bd 80 99 03 3d d2 14 1a 3e
       -0.15959762 -0.11575221 0.03212881 0.15047005
0000d0 78 cc 8a 3c 37 35 42 3e 5f 08 f7 3d 73 22 b1 3d
       0.016943201 0.18965612 0.120621435 0.08649149
0000e0 c3 c6 35 be 50 44 38 be 12 44 89 3d 5f 01 c6 bd
       -0.17751603 -0.17994809 0.067024365 -0.0966823
0000f0 45 6c 24 3d 54 fd 20 be 54 3a bf bc 28 77 0b bc
       0.040142316 -0.15721637 -0.023343243 -0.008512296

linear_2.weight f4 [32, 64]
000000 e6 ea e3 3d 79 e0 7c bc 83 ba 58 bc d8 e3 c1 bd
       0.11128788 -0.015434378 -0.013228062 -0.09467286
000010 00 c0 c5 3d 67 04 12 3c 38 14 22 bd d0 62 1a 3d
       0.09655762 0.008912182 -0.039570063 0.03769189
000020 83 d8 1e 3e 63 c9 67 3e 68 51 86 3d 0f cd 4d bc
       0.1551228 0.22635417 0.06558496 -0.012561097
000030 42 3e 42 3e 63 35 50 3d 1d 63 39 3e 34 27 da bd
       0.18969062 0.050832164 0.18104215 -0.10652009
000040 a2 7f fb 3d d3 04 22 3e 2b 08 82 3e e5 96 c2 3d
       0.122802034 0.15822153 0.25396857 0.09501437
000050 bf 68 45 3e 91 c2 a3 3d cb 13 ab 3d e4 aa 55 3d
       0.19278239 0.07996095 0.083533846 0.052164927
000060 d1 49 84 3d d1 d9 86 bd 54 69 bd 3d 0d 61 5d 3e
       0.06459392 -0.06584514 0.09248605 0.21619053
000070 a0 da 0c be e5 6c e6 3d 0f d4 48 be c0 72 ab bc
       -0.13755274 0.11251239 -0.19612144 -0.02092874
000080 46 e9 f4 3d 5d 15 fd 3d 3e 21 37 3e 2e 19 9b bd
       0.11958556 0.1235759 0.17883775 -0.07573162
000090 fd c5 b5 bc 00 f0 00 bb ca 75 6e 3e 68 48 c7 bc
       -0.022189135 -0.00196743 0.2328712 -0.024326518
0000a0 46 fd 8d bd 8d 3e d0 3d ec be 4d 3e a4 cc 15 3e
       -0.06933074 0.101681806 0.20092362 0.14628845
0000b0 e0 13 a0 3d df 21 a0 3d 89 c8 b6 bc 17 2e ea 3d
       0.07816291 0.078189604 -0.02231242 0.11434572
0000c0 e2 81 34 3e 70 34 44 3e 92 7e a7 bd 10 17 42 3e
       0.17627671 0.19160628 -0.08178438 0.1895411
0000d0 f0 10 af 3d a3 3e 73 3e b6 b8 3e 3e 54 8e c5 bb
       0.085481524 0.23754363 0.18625149 -0.0060289297
0000e0 e6 2f 60 3e 25 ee 83 3d aa a8 c3 bd 4b 46 e1 bb
       0.21893272 0.06441907 -0.095536545 -0.0068748347
0000f0 d2 db c5 bd 09 ec 3b 3e ba b1 ce bd a6 cc a0 3d
       -0.09661068 0.18351759 -0.100924924 0.078515336
000100 88 01 3c 3d f4 91 04 3d 08 4c 7d bd 34 c3 b9 bd
       0.045899898 0.032365754 -0.061840087 -0.09070435
000110 90 cb f3 bd 4c 5c ad bd 48 5b e3 bc 74 b8 ea 3d
       -0.11904061 -0.0846487 -0.027753487 0.11460963
000120 e8 8f 3a 3d 16 5c 81 3d 08 81 e6 bc 10 f1 67 bd
       0.045547396 0.06316392 -0.028137699 -0.05662638
000130 60 09 99 3c 92 4f ca bd b0 5e 4c 3c 08 fc da bc
       0.018681228 -0.09878458 0.012473747 -0.026731506
000140 e0 a4 23 3d a8 0f 1b bd ea 72 e8 bd 96 84 99 bd
       0.03995216 -0.037856728 -0.11350043 -0.07495992
000150 40 37 fe bd 16 b6 cf 3d c0 c4 94 bb 40 23 df bb
       -0.12412882 0.10142152 -0.004540056 -0.006809622
000160 0c 26 c7 bd 22 ad c4 3d 4c 29 e9 bd 20 9f ea bd
       -0.09724054 0.09603335 -0.1138483 -0.11456132
000170 04 e2 f8 bd 30 a5 e1 bc 56 b3 a0 bd ec 5f c3 3d
       -0.12152484 -0.027544588 -0.078467056 0.0953978
000180 20 85 2b bd b0 22 02 3c 08 48 96 3c 7a 95 99 3d
       -0.041875005 0.00794284 0.018344894 0.074992135
000190 f4 8a 9a bd 6c 3b af bd ac 0a 17 3d f8 79 91 bd
       -0.075460345 -0.08556256 0.036875412 -0.07103342
0001a0 40 78 80 3b 96 2c af 3d f4 bf 99 bd bc 3a 06 bd
       0.003920585 0.08553426 -0.07507315 -0.032770857
0001b0 04 c4 9c bd 42 78 83 bd e0 e3 f2 3b c4 db e7 3d
       -0.076545745 -0.06419422 0.0074124187 0.11321214
0001c0 98 50 ef 3d 60 d9 3d bd 4a 04 d0 3d a8 83 e1 3d
       0.11685294 -0.046349883 0.10157068 0.110114396
0001d0 10 c8 58 bd 00 6a c4 bd 80 27 e6 bc 08 f2 73 bd
       -0.05292517 -0.095905304 -0.028095007 -0.05955699
0001e0 48 2d a0 3c 26 3c c9 3d e0 77 fb 3b 48 6a c7 3c
       0.019552842 0.098259255 0.0076742023 0.024342671
0001f0 cc 2a f6 bd 5e ba c7 3d 64 56 25 bd ac a9 ea bd
       -0.120198816 0.097523436 -0.04036559 -0.114581436
000200 28 80 d7 3c 86 89 92 3d fc fb 4d be 70 ac e0 3c
       0.026306227 0.07155137 -0.20115656 0.027425975
000210 18 a5 ae 3d 00 5f e8 bc 9a 82 de bd e8 b5 f9 bc
       0.08527583 -0.028365612 -0.10864754 -0.030482247
000220 9e 6d dc bc 6b f0 45 3d fd 28 ef bd 06 2e 29 3e
       -0.026907738 0.048324984 -0.1167774 0.16521463
000230 0a de f9 3d 50 37 59 be 7a 00 a4 bd 26 9f 8d bd
       0.12200554 -0.21212506 -0.080079034 -0.06915121
000240 e0 cc 26 3c 30 cc 5d 3d 64 07 89 bc 7e 7b da bd
       0.010180682 0.054149806 -0.016727157 -0.106680855
000250 74 ac 5f bd c0 fc 39 3c 5c 62 14 3d ac 59 01 3d
       -0.054607823 0.011351764 0.036226615 0.03157966
000260 c4 46 94 3d be 81 87 bd 80 f1 e8 3d d8 d5 0e bc
       0.0724006 -0.06616543 0.113741875 -0.0087179765
000270 a4 30 44 be 84 b7 43 bd 0e 03 c3 bd 40 ca d4 3d
       -0.1915918 -0.047782436 -0.09522067 0.103901386
000280 df f8 07 bd b9 af d8 bd bb a0 41 3d 24 f1 a2 bc
       -0.033196326 -0.105803914 0.047272425 -0.019890375
000290 97 e9 14 3d 8a c4 db 3d 55 1e 6b bd e0 ef af bc
       0.03635558 0.10730846 -0.057401974 -0.021476686
0002a0 7a f9 e5 bd 60 3f a4 3c 02 51 02 3d ce 54 e0 3d
       -0.112292245 0.02004975 0.031815536 0.10953675
0002b0 b1 c7 34 be 60 41 89 3c 69 99 54 3d 26 0c a5 3d
       -0.17654301 0.016754806 0.051904116 0.08058958
0002c0 f6 69 d6 3d 5e 79 2f 3e ac 32 8c bd be da b2 3d
       0.10469429 0.17136142 -0.068456024 0.08733128
0002d0 c0 3f d2 bd 35 8f 94 bd 6c 37 8b 3d 40 60 b4 3d
       -0.102660656 -0.07253877 0.0679768 0.08807421
0002e0 a7 13 2d 3e 58 65 bb 3d 9c 40 1d 3d a7 64 3f 3e
       0.16902028 0.09150189 0.038391694 0.1869074
0002f0 1e 64 53 be c9 7e 31 3d 08 17 00 bd 88 9d 94 3d
       -0.2064366 0.043333802 -0.031271964 0.07256609
000300 9c f3 c8 bd 2e 9a d2 bd 24 c2 30 3d c8 80 98 bd
       -0.0981209 -0.10283314 0.043153897 -0.07446438
000310 3b 49 8a bd 36 b3 af bd 24 c4 9e bd 68 46 e3 3c
       -0.06752249 -0.08579104 -0.077522546 0.027743533
000320 00 8c de bc 96 14 ba bd 2c fe 37 be a5 9a 10 bd
       -0.027166367 -0.09085958 -0.17968053 -0.03530373
000330 ad 95 59 bd 24 2c ac 3d f0 7a b5 bc 88 e0 d1 3d
       -0.053121258 0.08406857 -0.022153348 0.10247904
000340 a6 63 f8 bd 16 cd 5d be c4 a0 a3 bc c2 45 c3 bd
       -0.121283814 -0.21660265 -0.01997412 -0.095347896
000350 1a bf 92 bd dc 48 28 3d 82 a4 de bd 74 60 64 3d
       -0.07165356 0.04108511 -0.10871221 0.055756047
000360 ec 33 4d be 30 bb c4 bc 70 b0 a7 3c 00 78 08 be
       -0.20039338 -0.02401504 0.020469874 -0.13327026
000370 3a 79 e6 bd ae 27 a0 3d 80 65 c7 3c 5c 94 c8 bc
       -0.11253591 0.07820068 0.024340391 -0.024484806
000380 d8 5e 0a bd 36 7c cc 3d fd f0 0a bc fc 8e 50 bd
       -0.033781856 0.09984629 -0.008480308 -0.05091761
000390 34 d8 75 bc d0 6a 32 bd f0 ed 5a be a6 64 96 bd
       -0.01500516 -0.043558896 -0.21379828 -0.07343416
0003a0 20 23 49 3d 1e a7 5a be 2c f0 86 3c 22 9c 50 be
       0.049105763 -0.21352813 0.016471945 -0.2037206
0003b0 ea 2d 8c bd 3a b5 89 bd 1e e0 80 bd 29 52 43 be
       -0.06844695 -0.06724019 -0.06292747 -0.1907431
0003c0 4b 25 84 bd 66 a7 9d bd 76 97 9a bd 4d f2 3e be
       -0.064524256 -0.07697944 -0.0754842 -0.18647118
0003d0 70 94 d9 bc 5b ae 93 bd ab 91 a0 bd 14 72 04 be
       -0.026560038 -0.0721099 -0.07840284 -0.12934142
0003e0 ec 63 0e be e0 87 16 3d 04 66 e3 bd d9 c4 80 3c
       -0.13905305 0.036750674 -0.11103442 0.015718864
0003f0 a0 6e 3d 3c 9a 06 9d bb 32 8c f8 3d dc ad 8b bd
       0.01156202 -0.0047920467 0.12136115 -0.068202704

linear_2.bias f4 [32]
000000 76 6e 23 3e 34 61 93 bd c7 70 54 3e 78 88 18 be
       0.15960106 -0.071962744 0.20746146 -0.14895809
000010 a2 34 44 be 8d 96 57 bd ff 58 02 3e 4c 6c 7a bd
       -0.19160703 -0.05263381 0.12729262 -0.061138436
000020 69 47 81 bc cc a7 dd bc 80 53 89 3c a2 2f a7 3d
       -0.015781121 -0.02705755 0.016763449 0.08163382
000030 ca cf 94 bc a5 90 ee 3d 48 fe 57 be bb 22 13 bd
       -0.018165488 0.116486825 -0.21093094 -0.035921793
000040 9c 8b 47 bd e4 cd 31 3e 11 af 99 3d a9 0f 8d bd
       -0.048717126 0.17363697 0.075040944 -0.068877526
000050 a0 c0 ea bd 34 53 1a 3d 37 8a 53 be 77 58 0b bd
       -0.114625216 0.037677005 -0.20658194 -0.034019914
000060 05 bb 72 3d 84 c0 70 bd e6 c7 a5 3d 97 78 53 3e
       0.059260387 -0.058777347 0.08094768 0.2065147
000070 cc e8 d2 3b b2 9c 65 3e ba ea 82 bd 9d 97 10 3e
       0.006436443 0.22423056 -0.06392427 0.14120336

linear_3.weight f4 [24, 32]
000000 85 9f 11 be 56 d3 0a be fe b5 fa 3d 20 97 9a bc
       -0.14221008 -0.13557181 0.122417435 -0.01887089
000010 24 fe 14 be f7 02 20 be c2 1a 64 bd b0 3c 86 bc
       -0.14550072 -0.15626131 -0.05568958 -0.01638636
000020 70 fb 9f 3c 71 cf 01 3e 40 af 2c bd 29 be 0e 3e
       0.019529074 0.12676789 -0.04215932 0.13939728
000030 52 9c 84 3d 0e 8e 81 3d 98 62 cf bd 85 7c 86 bd
       0.06475128 0.06325923 -0.10126227 -0.06566719
000040 8f 08 2a 3e 1c 44 0b 3d 9c 2e 03 be fa 74 d6 3d
       0.16604827 0.0340005 -0.12810749 0.1047153
000050 0a b3 cb 3d 51 a0 c3 bd 00 17 dd 3b be 51 0a be
       0.09946258 -0.09552062 0.0067471266 -0.13507745
000060 20 ce 68 bc f8 39 34 bd b0 4d 02 bc 3e 9c 13 be
       -0.0142093 -0.044000596 -0.007953092 -0.1441507
000070 74 05 58 bd 61 a8 10 3e 9b bc 29 be 27 67 07 be
       -0.052739576 0.14126731 -0.16575854 -0.13222943
000080 bc 6c 59 3e e0 5e 58 3c 6a 52 5d bb 8a e7 ca 3d
       0.21232885 0.013206214 -0.0033771046 0.09907444
000090 60 66 e3 3b 24 fc af 3d b3 90 25 3e 12 ec 83 bd
       0.0069396943 0.08593014 0.1616848 -0.06441511
0000a0 9c c1 8e 3d 96 b5 f8 3d 55 ee 20 be 18 e8 1c be
       0.06970522 0.1214401 -0.15715916 -0.15322912
0000b0 a4 5c 30 3e d8 62 94 3d 85 64 2c 3d 75 83 28 be
       0.1722284 0.072454154 0.04208805 -0.16456397
0000c0 1f 57 fe bd ce 00 6d 3e c7 e7 17 3e 05 50 90 bd
       -0.12418961 0.23144838 0.1483451 -0.070465125
0000d0 1e 25 8c 3d ab 33 cc 3d 60 62 a7 bc 8b b7 75 bd
       0.06843017 0.099707924 -0.020432651 -0.059989493
0000e0 11 d6 1a 3e 41 62 30 3e a4 2e 46 3d 3c 27 23 3e
       0.15120722 0.17224981 0.048384324 0.15932935
0000f0 54 90 11 bd 1a 39 21 3e 68 73 f8 3c c7 9c 13 3e
       -0.035538033 0.15744439 0.030328467 0.14415275
000100 e4 78 46 3d de dc 97 3d 49 49 2b 3e 98 26 36 bd
       0.048455134 0.07415174 0.16727175 -0.0444704
000110 fd 17 9f 3d c0 90 7a 3c e0 62 5c 3d 15 14 31 3e
       0.07768247 0.0152933 0.053805232 0.17292817
000120 33 f5 56 3e be 99 15 be 00 b0 2f b8 b7 73 4a 3e
       0.20991974 -0.14609429 -4.1887164e-05 0.19770704
000130 b9 11 a8 bd 66 97 dc 3d 38 38 44 bd d6 e8 9a bd
       -0.08206505 0.107710645 -0.047905177 -0.07563941
000140 70 89 11 bc 3a f2 c1 3d 6a 9f 36 bd 5a b4 c7 3d
       -0.008882865 0.09470029 -0.044585623 0.09751196
000150 48 64 98 3c 0e e8 82 3e c0 97 ae bb e0 7e 57 bc
       0.018602505 0.2556767 -0.0053281486 -0.013152808
000160 79 22 53 3e 17 fb bb bd 45 54 37 3e 3a 51 10 bd
       0.20618619 -0.09178751 0.1790324 -0.035233714
000170 ed ef de 3d 10 65 01 3c a8 3f d2 bc 2a b9 18 3d
       0.10885606 0.00789763 -0.02566512 0.03728596
000180 aa 88 66 bd 4c b8 4d bd 45 0e 02 3e cf 38 e6 bc
       -0.056282677 -0.050224587 0.12700756 -0.02810326
000190 42 29 19 be 59 30 2a bd a4 24 0a 3d d2 11 ad bd
       -0.14957145 -0.041550014 0.03372635 -0.084506646
0001a0 80 90 4e 3d d4 81 44 bd 0a 4e 32 be e6 42 cb 3d
       0.050430775 -0.047975376 -0.17412582 0.09924869
0001b0 28 dd 2e 3e f9 c3 80 3e 7e 5a 89 3d 86 87 9b 3d
       0.17076552 0.25149515 0.06706713 0.075942084
0001c0 25 10 03 be 0e 4f de 3d 37 b5 cb 3d 2d 1e 10 bd
       -0.12799127 0.10854922 0.09946673 -0.035185028
0001d0 26 c4 ef 3d ea 80 39 3e 71 f8 24 3e a9 e3 b3 3d
       0.11707334 0.18115583 0.16110398 0.08783657
0001e0 d4 27 59 bd 8a 88 57 bd 9d f5 c1 bd f3 14 0f 3e
       -0.0530165 -0.05262045 -0.09470675 0.13972835
0001f0 f3 cf 12 3e 74 70 87 3e 09 2e 23 3e 5a ec 16 3e
       0.14337139 0.26452982 0.1593553 0.14738598
000200 17 df 7e 3e d4 a9 1e 3d ed dc bd 3d 8c d4 24 3e
       0.2488979 0.03873618 0.09270654 0.16096705
000210 7f aa 03 3e 84 bd 15 3e c0 16 fe bd 11 53 08 3e
       0.12858008 0.14623076 -0.12406683 0.13312937
000220 26 f6 ff bd 62 41 b4 3d 86 a6 e6 3d 60 7f bf bb
       -0.12498121 0.08801533 0.112622306 -0.0058440417
000230 8a 01 08 3e 15 50 c8 3d 93 09 74 bc b8 48 8b 3d
       0.13281837 0.097808994 -0.014894861 0.068009794
000240 80 7a 0c 3b ae 4b cc 3c bd 38 7a 3e 11 8d 96 bd
       0.002143532 0.02493843 0.24435706 -0.07351125
000250 0d 6e 12 3e e4 e0 42 3e 20 98 d0 3b 35 22 7d 3e
       0.14299794 0.19031101 0.006365791 0.2472008
000260 20 8a 4e 3d 80 f0 99 3b b7 cb aa bd 23 4f 87 3e
       0.050424695 0.0046978593 -0.08339637 0.26427564
000270 f7 f5 2f 3e 50 2a 24 3e 20 f8 97 bb bc 32 48 3e
       0.17183672 0.16031766 -0.004637733 0.19550604
000280 67 1a 86 3e 94 40 10 bd f5 7c 68 3e 7d f0 82 bd
       0.26192018 -0.035217836 0.22703917 -0.06393526
000290 35 e9 2a 3e 69 fc 03 3c 60 e0 af bc 6e bd da 3d
       0.16690524 0.008055785 -0.021469295 0.10680662
0002a0 2f 1f c5 bd 80 b5 ff bb 64 ba 1a 3d c4 e6 84 3d
       -0.096250884 -0.007803619 0.037775412 0.064893275
0002b0 0d 5c 8b 3e 2d fa 27 bc 35 5f 34 bd df 26 2f be
       0.27218667 -0.010252518 -0.04403611 -0.17104672
0002c0 20 a1 8a bd d7 e3 36 bd f8 ae d2 3d f7 3c 9c 3d
       -0.067690134 -0.04465088 0.10287279 0.076288156
0002d0 19 7a 2a be 7d b3 83 3d 90 9c 00 bc 1a 69 93 bc
       -0.16648139 0.06430719 -0.007849827 -0.017994452
0002e0 e8 40 44 3d 9d ef 2e be 5a 22 af 3d fe c4 2c bd
       0.047913462 -0.17083593 0.08551474 -0.042180054
0002f0 00 8b 23 bc 75 d0 e4 3d 31 b0 2b 3e b4 a1 11 3e
       -0.009981871 0.111725725 0.1676643 0.14221841
000300 e3 e2 ae 3d 86 1d a8 bd fb 68 33 bc 7e e7 eb bd
       0.08539369 -0.08208756 -0.010950322 -0.11518763
000310 00 7a 1a 3a 14 46 38 bd fd f2 27 3e f3 9e c7 bd
       0.0005892813 -0.044988707 0.16401286 -0.09747114
000320 58 ae 8d 3c 1a c0 72 bc 48 e1 fd bc c1 cf 94 bd
       0.017295048 -0.014816308 -0.030991212 -0.072661884
000330 20 2e d4 bb bd c9 83 bc 4e 9c b5 bd 64 8e 32 be
       -0.006475225 -0.016087407 -0.088677034 -0.1743713
000340 a5 b2 17 3e 23 d4 7c bd 79 5b 85 3e e6 d8 cb 3d
       0.14814241 -0.061725747 0.2604635 0.099534795
000350 c0 ec 7e 3c 69 bf d8 3d 1a 1f 6c 3d 58 fc f5 3c
       0.015559375 0.105833836 0.05764685 0.030027553
000360 24 b8 2a be ef 93 04 3e 7a 62 f7 3d cb 7d 7a 3e
       -0.16671807 0.12947057 0.1207933 0.24462049
000370 e0 3a 72 bc 8b b2 1d 3e 0c 32 e8 bd fd b7 51 3e
       -0.014784545 0.1540014 -0.11337671 0.20480342
000380 dd 34 42 3e 1a 43 b5 3d 25 db 16 be e4 6f 09 bd
       0.18965478 0.08850689 -0.14732035 -0.033553973
000390 08 3a ae 3c 81 d1 33 3e a2 dd c8 bc ea 73 fe bd
       0.021267906 0.17560388 -0.024519745 -0.124244526
0003a0 f3 e3 46 3e d4 bd 42 3d 2a 5d 86 3d 21 6d 3c 3e
       0.19422893 0.047544315 0.065607384 0.18401004
0003b0 6c 30 19 3d 57 ce 18 be 01 af 00 3e c1 30 0f 3e
       0.037399694 -0.14922462 0.12566759 0.13983442
0003c0 a0 13 89 bb a5 da 16 3e d9 f0 af bc dc 4e 4e 3d
       -0.0041832477 0.14731844 -0.02147715 0.050368175
0003d0 e7 62 17 3e 21 75 f1 3d e7 3e 1b be a2 ea 6e bd
       0.14783822 0.11789919 -0.15160714 -0.058329232
0003e0 c9 1c 39 3e 38 8e 10 be f5 6a 2c 3e b0 0f 16 3e
       0.18077387 -0.14116752 0.16837676 0.14654422
0003f0 00 65 bb bc 1c 48 78 3d ae 46 e8 3d 1d 35 85 3e
       -0.022875309 0.060615644 0.11341606 0.26017085

linear_3.bias f4 [24]
000000 aa fc d3 bd 93 c2 ce 3d 32 fd 48 3c 78 5d 1f 3d
       -0.10350926 0.10095706 0.012267398 0.038907498
000010 b6 d6 46 bd 52 b8 64 3e 3e 3b 27 3e ee 12 36 3e
       -0.048544608 0.22335938 0.16331193 0.17780659
000020 d9 ed 12 3e 85 07 0e 3e f5 13 06 3d 02 3b 25 3c
       0.14348544 0.13870056 0.032733876 0.010084869
000030 a2 30 ea 3d be bc 5c 3d e4 92 0b 3e c0 28 34 bc
       0.11435057 0.053890936 0.13630253 -0.010996044
000040 69 4e 08 3d 20 77 ce 3b 2b 54 17 3e b7 6c 1c 3e
       0.033277903 0.006300822 0.14778201 0.15275846
000050 f4 4a 64 3e c4 6e a8 bd ea 3b 2e 3e c8 74 64 bd
       0.22294217 -0.08224252 0.17015043 -0.055775434
