save/DQL.pth (torch, 46679 bytes, 6 tensors)

linear_1.weight f4 [64, 129]
000000 47 c7 01 bd 59 82 2b bd e0 70 e3 bc a8 84 2a 3c
       -0.031684186 -0.041872356 -0.027763784 0.010407604
000010 b8 52 5c bd 70 98 17 3c e6 ed 95 3d b7 a5 99 bd
       -0.053789824 0.0092526525 0.07320766 -0.07502311
000020 40 26 b1 3a 72 6f 23 bd 60 f0 92 bb 04 0e 1c 3d
       0.0013515428 -0.039901204 -0.0044842213 0.038099304
000030 ec bd c9 bc 94 ab 31 3d 98 70 17 bc 10 2b 3f 3c
       -0.024626695 0.04337652 -0.009243153 0.011667982
000040 d9 d7 a4 bd 70 15 3e 3d 46 28 9b 3d 74 e3 04 3d
       -0.08048982 0.046407163 0.07576041 0.03244348
000050 80 20 ac bd 08 81 24 3d 08 b2 b9 bc a6 e4 6f bd
       -0.084046364 0.040162116 -0.0226679 -0.058567666
000060 00 24 1a bc 04 10 ca bc 44 42 ef bc 5a 58 40 bd
       -0.009407997 -0.02466584 -0.029206403 -0.04695926
000070 c0 c1 ca 3c 14 0c 98 bc 1c 5d 53 3d 12 36 ea bc
       0.02475059 -0.018560447 0.051602468 -0.028590236
000080 a0 ef da bb 20 2d 00 3b d6 70 87 3d 1a ec 98 3d
       -0.0066813976 0.0019558147 0.066133186 0.07466908
000090 16 b5 82 3d 84 24 91 3d 70 04 c0 3c 10 6e 8f 3b
       0.06382196 0.07087043 0.023439616 0.004377134
0000a0 60 54 50 bc 24 e8 b3 3d cc 6c a6 3d 14 6b 94 3d
       -0.012715429 0.08784512 0.0812622 0.07246986
0000b0 5a 00 80 3d 92 d6 84 3d 40 4a 1d bb 11 ed aa bd
       0.06250067 0.064862385 -0.0024000555 -0.08345998
0000c0 c8 c6 76 3d c4 8f f4 bc b8 84 50 3d b4 35 7f bd
       0.060248166 -0.029853709 0.05090782 -0.062307075
0000d0 98 df 81 3c a4 39 a6 3c 20 1a 54 3d 46 ce 4a bd
       0.015853688 0.020291157 0.051782727 -0.049513124
0000e0 5c f3 29 bd 5c 03 48 3d d7 3e 27 bd 30 ff 97 3d
       -0.04149185 0.04883133 -0.040831413 0.0742172
0000f0 4a 83 00 3d 38 a3 91 3d ec 9a c3 3c c3 5c aa bd
       0.031375207 0.0711121 0.023877583 -0.08318474
000100 b8 2f b1 3d 10 77 ef bb e0 89 29 bc 98 77 5b 3d
       0.0865168 -0.0073078945 -0.010347813 0.05358085
000110 f0 59 9a 3d 04 7b 86 bd c0 6f 52 3b 35 b1 2a bd
       0.075366855 -0.06566432 0.0032110065 -0.041672904
000120 7f 4a 50 bd 58 62 58 3d d4 2a 8d 3c 40 87 8c bb
       -0.050852295 0.052828163 0.017232336 -0.004288584
000130 20 e0 79 3b 00 35 2a ba 14 0b ec 3c e4 a2 af 3d
       0.0038127974 -0.0006492883 0.028813876 0.08575991
000140 98 92 96 3d 65 50 99 bd a6 3f 97 bd d1 cc 9b bd
       0.07352179 -0.07486037 -0.07385187 -0.07607425
000150 64 10 92 bd 58 a9 bb 3c 3b 77 aa bd 48 be 6f bc
       -0.071320325 0.022907898 -0.08323523 -0.014632769
000160 7f e4 64 bd 7d d8 4b bd 40 f2 d7 3c 6c ad cc bc
       -0.055881973 -0.049767006 0.026360631 -0.024985038
000170 28 cc 2a 3c 82 cf 69 bd 78 a9 33 bd c0 69 5e 3c
       0.010424651 -0.05708266 -0.04386279 0.013575017
000180 dc 8b f5 3c d7 77 17 bd 6c ab d2 3c a3 37 49 bd
       0.029973917 -0.036979523 0.025716506 -0.049125325
000190 c0 2f 84 bc 1f 50 ad bd d0 25 4c 3d a4 8a e7 3c
       -0.01613605 -0.084625475 0.04984075 0.028264351
0001a0 d0 ca f0 3b 64 35 31 3d 94 cf 87 3c 1c a0 4e 3d
       0.007348396 0.043263808 0.016578473 0.05044566
0001b0 38 81 86 3c 6c 28 2e 3d 38 56 3f 3d de dc 24 bd
       0.016419038 0.042519018 0.046713084 -0.040249698
0001c0 e4 fd 81 3c 8c 42 24 3d 45 b2 1d bd 20 eb 5d 3c
       0.015868135 0.040102527 -0.03850009 0.013544828
0001d0 a6 8e 93 3d 3b 08 99 bd 9b 43 55 bd 9f b8 8e bd
       0.072049424 -0.07472273 -0.052066427 -0.069688074
0001e0 b8 4a 72 3c 38 46 47 3d 60 94 71 3d 40 25 78 3c
       0.014788322 0.04865095 0.058979392 0.0151456
0001f0 fc af c8 3c 8c 8a a7 bc c0 58 4a 3d b4 36 00 3d
       0.024497978 -0.020451806 0.049401045 0.03130217
000200 f8 13 55 3d a4 83 b0 bd 04 d9 c7 3c 48 fa 63 3d
       0.052020997 -0.086188585 0.024395473 0.05565861
000210 b8 c0 2a 3c 88 7a 67 3d 84 34 95 bc b3 ea 94 bd
       0.010421924 0.05651334 -0.018213518 -0.07271328
000220 50 b6 78 3d 5e fe 58 bd 89 78 09 bd 84 62 6f 3d
       0.06072074 -0.05297696 -0.033562217 0.05844356
000230 60 66 77 bb c4 ff 11 3d 0b 05 33 bd 34 77 89 bd
       -0.003775023 0.035644308 -0.04370598 -0.06712189
000240 0c 99 1d 3d 80 fc f8 3b 3c db c0 3c 08 2b 56 bd
       0.038476035 0.0075984597 0.02354204 -0.05228713
000250 81 90 5c bd 94 aa ef 3c c0 d3 23 bb 38 7b fc 3c
       -0.053848747 0.029256143 -0.002499804 0.030820474
000260 50 8e 11 3d 17 b7 98 bd ad e3 14 bd da ab 95 bd
       0.03553611 -0.074567966 -0.03634994 -0.07308169
000270 94 56 a8 3d b0 2d a2 3c 00 6a 7c bb 8c 30 30 3d
       0.082196385 0.019797176 -0.003851533 0.043015048
000280 c0 c6 8f bc 22 9d ae 3d a0 bb 1d 3b 18 84 01 3c
       -0.017550826 0.085260645 0.0024068132 0.007905029
000290 aa 8f 93 3d c0 86 73 bd f2 8e 8b 3d 08 30 2c 3d
       0.07205136 -0.05945468 0.06814374 0.042037994
0002a0 f0 47 49 3d d8 9a 7d 3d b0 86 5d bc d7 5f 2d bd
       0.04914087 0.06191525 -0.0135208815 -0.042327728
0002b0 ec df 1b 3d 8e 4f a4 3d 7e b1 89 bd 23 33 9c bd
       0.038055345 0.08022986 -0.06723307 -0.07626941
0002c0 f8 53 70 3c 72 87 12 bd 10 36 e2 3b 12 52 aa bd
       0.014668457 -0.035773702 0.0069034174 -0.08316435
0002d0 50 41 66 3d a0 0f 76 3b 7c 7c a5 bd d6 62 79 bd
       0.05621463 0.0037545934 -0.08080384 -0.060885273
0002e0 e3 0d 9e bd a1 da 4d bd 5e 55 fb bc e8 37 42 3c
       -0.077174924 -0.05025733 -0.030680355 0.011854149
0002f0 d0 dc 28 3d a4 7d 58 3d 4e f7 97 3d 48 70 ee 3c
       0.04122621 0.052854195 0.074202165 0.029106274
000300 4e af 80 bd 97 0d 99 bd ee 16 53 bd 58 88 32 3d
       -0.06283437 -0.07473295 -0.05153554 0.04358706
000310 1a e9 de bc a8 a5 6c 3d dc 65 ab bd 60 fb 29 3b
       -0.02721076 0.05777517 -0.083690375 0.0025937185
000320 20 cc 4d bb bb af b0 bd 38 c9 9c 3c 80 07 87 bb
       -0.0031402186 -0.08627268 0.019138917 -0.004120767
000330 a6 f3 93 bd d8 bf 86 3d 7c a1 d4 bc 54 f2 c7 3c
       -0.072242066 0.0657956 -0.025955908 0.024407543
000340 60 be 68 3d a5 84 73 bd 38 d4 db 3c 9c 28 2c bd
       0.05682218 -0.05945267 0.026834592 -0.042030916
000350 80 4f ae 3d b0 c4 83 3d b4 ca 7c 3d 04 62 a1 3d
       0.08511257 0.064339995 0.06171675 0.07880023
000360 b0 2e 69 3d f0 ac 9e bd ae 44 25 bd 2c ab 9d bd
       0.05692929 -0.07747829 -0.0403487 -0.07698664
000370 14 2e 3e 3d f0 53 79 bc 0e 8f a0 3d 48 83 61 3d
       0.046430662 -0.015217766 0.078397855 0.05505684
000380 b4 75 82 bc 45 30 08 bd b4 85 c2 bc ba 4c 59 bd
       -0.015925266 -0.03324916 -0.023745395 -0.053051688
000390 57 f1 a9 bd 32 28 dc bc b8 ed 37 3d 90 cc 15 3c
       -0.08297985 -0.026874635 0.04490444 0.00914301
0003a0 70 7b c1 3c 24 1e a1 3d f0 d3 ee 3b 00 e0 5a 37
       0.02361843 0.07867077 0.0072884485 1.3045967e-05
0003b0 d9 bf ae bd 40 0a d1 bb 21 e3 9f bd 1e 69 3e bd
       -0.08532686 -0.0063793957 -0.07806993 -0.046486966
0003c0 60 1d 44 3d 0a 3f a3 bd 05 cb a7 bd 2c c3 ec 3c
       0.047879577 -0.07971008 -0.0819302 0.028901659
0003d0 6a 37 8c 3d c4 bd fb 3c a8 85 24 bd a6 74 84 bd
       0.06846507 0.030730136 -0.040166527 -0.064675614
0003e0 b0 0e fc 3c 18 e9 a0 bd 14 95 85 3d 92 3a 01 3d
       0.030768722 -0.07856959 0.06522575 0.031549998
0003f0 b8 2a cb bc 00 77 cb 3a e8 fb c9 3c 72 0c a7 bd
       -0.024800643 0.0015523136 0.024656251 -0.08156671

linear_1.bias f4 [64]
000000 58 ec 8e bc a0 bd 89 3b d4 f6 78 bd 50 86 d3 3c
       -0.017446682 0.0042035133 -0.06078227 0.025820881
000010 03 fa b2 bd 00 89 32 3c 48 bd 77 3d 28 bf 2d bc
       -0.08739092 0.010896921 0.060483247 -0.010604657
000020 08 5a 55 bc 28 6e 61 bd 60 8e 44 bd 20 24 40 3d
       -0.013021953 -0.055036694 -0.047987342 0.04690945
000030 e4 63 8a 3c 08 96 08 3d c0 c1 18 bb 67 69 19 bd
       0.016893335 0.033346206 -0.0023308843 -0.037454035
000040 fe 06 86 bd 10 34 06 bd bc 0f 77 3d 40 d1 5a bc
       -0.065443024 -0.032764494 0.06031774 -0.013355553
000050 08 d1 34 3d af e5 55 bd 62 6c b3 3d 9c db af bc
       0.04414466 -0.052220996 0.08760907 -0.021467023
000060 34 11 48 3d 0e 63 1f bd 80 41 a7 3b b0 c5 2e bc
       0.04884453 -0.038912825 0.0051042438 -0.01066725
000070 d6 dd 10 3d f4 62 9f 3c 94 ff 17 3d 47 02 aa bd
       0.03536781 0.019456364 0.037108973 -0.083012156
000080 55 6d 29 bd b0 6a fa 3c 1c 60 93 3c a2 b6 94 bd
       -0.041364033 0.03056845 0.017990164 -0.07261397
000090 9e 51 8c bd c4 99 b0 bc 77 67 51 bd 3c 87 83 3d
       -0.06851505 -0.021557696 -0.051124062 0.06422278
0000a0 fc f6 76 3d 38 23 9c 3c f5 b8 b2 bd 1e d6 04 bd
       0.060294136 0.019059762 -0.08726684 -0.03243076
0000b0 ce b2 b3 bd ba 09 a0 3d 80 0e c4 bc 3a 23 8b bd
       -0.08774339 0.07814355 -0.023932695 -0.06793828
0000c0 f0 7e 83 bc 4e 48 0d 3d ac bc c6 bc 3f fe 3a bd
       -0.01605174 0.034492783 -0.024259888 -0.045652624
0000d0 79 54 3f bd b0 da bd bc 26 ec a4 3d fc 95 ad 3c
       -0.04671142 -0.023175567 0.08052854 0.021189682
0000e0 3e 60 a7 bd 97 ea 3e bd ec f4 6c bd b1 ac 2d bd
       -0.081726536 -0.04661044 -0.057850763 -0.04240102
0000f0 ed 51 92 bd 40 e1 05 bb 44 25 17 bd 24 7f 92 bd
       -0.07144532 -0.002042845 -0.036900774 -0.071531564

linear_2.weight f4 [32, 64]
000000 20 23 81 3d 14 61 fe bd 0e 3d 8e bd 78 e8 15 3d
       0.06305528 -0.1242086 -0.06945239 0.036598653
000010 b8 7c a4 bc 38 a4 d8 3c 9e 80 e6 bd d4 5a 06 bd
       -0.020079002 0.026445493 -0.112550005 -0.032801464
000020 70 c4 d0 bc bc c8 b3 bd 20 01 8d 3b ee 9f cb 3d
       -0.025484294 -0.087785214 0.0043031126 0.099426135
000030 c4 a6 83 bd e0 6f 6e bd 40 3c 19 3d d2 b0 c5 bd
       -0.064282924 -0.05821216 0.037410975 -0.096528664
000040 dc df e2 bd 7a 02 80 3d aa bb b5 bd f4 9b 24 3d
       -0.11077854 0.06250472 -0.08873685 0.04018779
000050 50 95 72 bd 10 fb 07 3c 38 43 d5 3c 3e a4 d1 3d
       -0.059224427 0.008299604 0.026033029 0.10236405
000060 14 b4 11 3d ea 22 a3 3d 20 cf 95 bc 66 5a c1 3d
       0.035572127 0.07965644 -0.018287241 0.0944107
000070 be 8a ad 3d a0 83 e8 bb 90 6c b5 3c e8 06 cd 3c
       0.084737286 -0.007095769 0.022146493 0.025027707
000080 8e a1 83 bd 26 57 b5 bd 84 67 97 bd f0 d3 fc 3c
       -0.064272985 -0.08854513 -0.07392791 0.030862778
000090 20 2a f5 3d 8e 0b ed 3d 10 d4 f2 3d e0 12 23 bc
       0.11970925 0.115744695 0.11856854 -0.009953231
0000a0 74 4a 44 3d b0 41 61 3d 30 7c 00 bd 4c 43 9b bd
       0.047922567 0.054994285 -0.031368434 -0.07581195
0000b0 8a 4b d2 3d 30 ab 97 bc 00 5f d4 3c a2 f8 ea bd
       0.10268314 -0.018514246 0.025924206 -0.11473204
0000c0 04 c7 17 3d 38 1b 03 bd f0 cc 2b 3c 80 a7 8d bc
       0.03705503 -0.03200838 0.010485873 -0.017291784
0000d0 c8 42 97 3c c4 19 5e 3d 30 90 7f 3d ec 8a 99 bd
       0.018464461 0.05422379 0.062393367 -0.074972
0000e0 b0 5e 3d bd d0 a0 46 bc 98 03 b3 bd e0 42 95 3c
       -0.04623288 -0.012123302 -0.0874092 0.018220365
0000f0 42 49 d8 bd f8 83 e6 bd a0 0f 0d 3d fe 94 d0 3d
       -0.10560848 -0.1125564 0.03443873 0.10184668
000100 30 7f ac 3d 6a 7e cc bd 96 a9 de bd 20 01 b1 bb
       0.084226966 -0.09985049 -0.1087219 -0.0054017454
000110 c8 de 6e bd e0 a2 7e bc 1e 81 d0 3d 70 fb f6 3d
       -0.05831793 -0.015541762 0.10180877 0.12059677
000120 14 e4 bb bd c8 92 f3 bd a0 26 d9 3d 18 bd 21 3d
       -0.09174362 -0.11893231 0.1060307 0.039486974
000130 3c 25 37 3d 1e 1f c1 bd 5e 14 82 bd d0 96 57 3d
       0.044713244 -0.09429763 -0.06351541 0.05263406
000140 64 72 86 3d dc 50 7f 3d a6 65 b8 bd 00 81 db bc
       0.06564787 0.062332973 -0.09003763 -0.02679491
000150 b0 61 ac 3d bc 8c 71 bd a0 c5 c7 bd bc 95 64 3d
       0.0841707 -0.058972105 -0.09754491 0.05580686
000160 38 52 c6 3d 10 3b 41 3d 46 9d fd bd a0 5b c1 3c
       0.09683651 0.047175467 -0.12383513 0.02360326
000170 d8 ca a5 3c 70 fb 89 bc 48 a0 3d 3d 10 4b fc 3c
       0.020238325 -0.016843528 0.046295434 0.030797511
000180 50 90 42 bc 30 ba 32 bd 14 b2 06 bd 10 ef 03 bc
       -0.011875227 -0.043634593 -0.032884672 -0.008052602
000190 ee 83 bb 3d f4 c7 80 3d 30 76 41 3c 80 14 9d 3d
       0.09156023 0.06288138 0.011807963 0.07669926
0001a0 48 e5 a5 bc 04 10 06 bd ee 65 c5 3d f0 76 07 bd
       -0.020250931 -0.032730117 0.09638582 -0.033072412
0001b0 00 d1 a3 ba 08 db eb bd b4 f4 21 bd a0 ad e5 3c
       -0.00124982 -0.11516386 -0.039540008 0.028036892
0001c0 70 04 0a bc 1c 72 a7 3d d4 1d 83 3d fe f3 ed 3d
       -0.00842391 0.081760615 0.06402174 0.116188034
0001d0 a4 6c ae bd 10 79 5b 3c 1c de fc 3d ee 9d b2 3d
       -0.08516815 0.013395563 0.123470515 0.08721529
0001e0 5a 53 c0 3d b2 03 f3 3d 08 67 b0 3d cc 5f d4 bd
       0.09390898 0.11865939 0.08613402 -0.10369834
0001f0 fe d1 e7 3d b0 f4 cf bd 16 87 e2 3d 70 27 32 3d
       0.1131935 -0.10154092 0.11060922 0.04349464
000200 1c bf 9f 3d 14 ee b5 bd 4a a5 80 bd e8 48 df 3c
       0.07800123 -0.088833004 -0.062815264 0.027256444
000210 7a 24 b9 bd 78 d1 9f bd a6 f2 f9 3d 48 87 e0 3c
       -0.090401605 -0.07803625 0.12204485 0.027408257
000220 b8 cf 42 3d 20 e5 ed 3d 30 1d 15 3d 6c 0f ca bd
       0.047561377 0.11615968 0.03640479 -0.09866223
000230 e4 f1 94 3d b8 07 0f bd 94 ea c5 bd 30 df 4a 3c
       0.072726995 -0.03491947 -0.09663883 0.012382314
000240 50 92 a2 3d 40 ca b9 bc e4 a2 4e 3d 62 00 c7 bd
       0.07938063 -0.022679448 0.050448313 -0.0971687
000250 18 24 9d 3d 00 8f 0e 3c a8 19 d7 bd b8 e6 b3 3c
       0.076729 0.008701086 -0.105029404 0.021960601
000260 d0 72 ba bc 64 b7 eb 3d a0 80 40 3c 10 88 70 3c
       -0.022759825 0.11509588 0.011749417 0.014680877
000270 d0 59 39 3c 40 70 8f 3c 7c f1 97 3d e8 d5 c5 bd
       0.011312917 0.01750958 0.07419106 -0.0965994
000280 c4 03 7e 3d 54 89 9e bd 08 26 9a 3d b0 ca 54 3c
       0.06201531 -0.07741037 0.07526785 0.012987778
000290 1c d4 98 bd f6 f4 ae bd a0 84 d3 3d 32 ce d7 3d
       -0.07462332 -0.08542816 0.103280306 0.105373755
0002a0 00 da 47 3b ec 30 21 bd cc 91 96 3d 74 49 e9 bd
       0.0030494928 -0.039353296 0.07352027 -0.11390963
0002b0 08 c4 75 bd 68 e6 f8 3c 3e 10 c5 3d e2 06 b5 3d
       -0.060001403 0.030383304 0.096222386 0.088392034
0002c0 7c 05 c5 bd 50 dd a4 bc e4 df 93 3d a8 ac f5 3d
       -0.09620187 -0.020125061 0.07220438 0.11995822
0002d0 d0 9d cc 3c d4 c3 09 3d 46 fb b3 3d 3c 63 60 3d
       0.024977595 0.033634022 0.08788161 0.054782137
0002e0 70 2d 2b 3c 1c 0f 53 bd 58 fc a7 3d 5a a0 df 3d
       0.010447845 -0.05152808 0.082024276 0.109192565
0002f0 d0 f6 84 bd d2 c9 f0 bd 68 91 d9 bc b2 aa f0 bd
       -0.06492388 -0.11757244 -0.026558593 -0.117513075
000300 7e ae 82 3d e6 a3 c9 3d ca 30 f4 3d a0 24 af 3c
       0.06380938 0.09845714 0.11923368 0.021379769
000310 b2 ad e3 bd c0 05 e0 3d 40 f6 c5 bb dc 6c 23 bd
       -0.11117114 0.10938597 -0.006041318 -0.03989874
000320 58 7b e6 3c 70 ee 37 bd 92 3a b6 3d 28 42 e4 bd
       0.028134987 -0.044905126 0.0889789 -0.11145431
000330 98 c6 94 3d 10 08 11 3d 34 23 97 3d 00 e0 d6 b9
       0.07264441 0.03540808 0.07379761 -0.00040984154
000340 e0 13 02 bd 6e 35 e9 bd 5e 7d fb 3d 4a f7 fc bd
       -0.031757236 -0.11387144 0.12279771 -0.12351854
000350 44 1e 59 bd 94 76 28 bd 4c ac c7 3d 4c fb d3 3d
       -0.05300738 -0.04112871 0.0974966 0.103506655
000360 dc 8e 57 bd 60 c3 fb 3c de 42 b8 3d 86 a5 d0 3d
       -0.052626476 0.03073281 0.08997129 0.10187821
000370 44 e2 db 3d b8 20 4a bd 20 5e bf 3b ec 4a 87 bd
       0.10736516 -0.04934761 0.005840078 -0.06606087
000380 50 d2 99 3d be 88 cd bd 70 13 d2 bd 0a 6e d4 bd
       0.07510817 -0.10035847 -0.10257614 -0.10372551
000390 5c eb 7e bd d8 7f 4d bd d4 13 a3 bd 68 eb 33 bd
       -0.062236175 -0.05017075 -0.07962766 -0.043925673
0003a0 0c f8 45 3d d4 be 5a bd c6 cd ad 3d bc 05 06 3d
       0.04833226 -0.053404644 0.08486514 0.032720312
0003b0 fa da cb 3d 70 5b 22 bc a0 ba 46 3c 98 f5 e9 3d
       0.09953876 -0.009909496 0.012129456 0.114237964
0003c0 b8 4f c7 bc 50 eb bd bd b4 c0 0e bd e0 ec ea 3b
       -0.024330005 -0.09273398 -0.034851745 0.007169351
0003d0 30 a5 33 3c 70 44 6b bd 26 dd d2 3d 86 61 c4 3d
       0.010964677 -0.057438314 0.10296087 0.095889136
0003e0 0a c0 bb bd 78 a6 2b 3d 50 02 ef bc 38 72 94 3d
       -0.09167488 0.041906804 -0.029175907 0.07248348
0003f0 78 1a 9a bd 5a a9 dd bd 00 6b 4f 3b e4 d9 d6 bd
       -0.0752458 -0.10823317 0.003164947 -0.10490778

linear_2.bias f4 [32]
000000 68 8d 39 3d 24 ec 3f bd 30 5b bc bd 50 ad 6b 3c
       0.04530087 -0.04685606 -0.0919708 0.014384583
000010 00 c9 fd 3b f0 7e fd 3c 32 53 c0 bd 94 6e 62 3d
       0.0077449083 0.030944318 -0.09390868 0.055281237
000020 ac 93 49 3d 18 05 bc bc f4 b5 03 bd de 8b d1 3d
       0.049213096 -0.022951648 -0.032155946 0.10231756
000030 2a 90 d7 bd 60 a5 24 bc 44 16 bf 3d 12 3c d7 3d
       -0.10525544 -0.010049194 0.09330419 0.105095044
000040 be 17 f2 bd cc f3 b7 bd 20 f1 69 3c a0 12 47 bd
       -0.11820935 -0.089820474 0.01427868 -0.048601747
000050 20 fd 06 bd ee 55 f0 bd 50 34 b5 3c 8c 72 10 bd
       -0.032956243 -0.1173514 0.022119671 -0.03526549
000060 c8 9b 89 bd c0 50 35 bc 30 f1 9c 3d 86 d6 db 3d
       -0.06719166 -0.011066616 0.0766319 0.107342765
000070 c0 3e ca bc 68 c6 9c bd 70 6b 5e bd 10 ab 41 bd
       -0.024688125 -0.076550305 -0.05430168 -0.04728228

linear_3.weight f4 [24, 32]
000000 5e 6e 2a be 7f c3 0d 3e 8e a3 86 bd 8c ec ff bd
       -0.16643664 0.13844107 -0.06574164 -0.124962896
000010 ea 06 8d 3d f7 7c 1d 3e 3b 02 17 3e 93 1d 26 3e
       0.068860844 0.15379702 0.14746945 0.16222219
000020 40 2d d6 bb d0 3b 59 bc f2 bd c4 3d 50 79 32 3d
       -0.006536156 -0.013258889 0.09606542 0.043572724
000030 de 85 dc bd de 1d a5 3d 1a e5 1a be 83 7d 30 3e
       -0.10767721 0.08062337 -0.15126458 0.17235379
000040 5a 8b b9 3d 2e f5 2c be b0 bc 97 bd e3 c4 19 be
       0.09059782 -0.16890404 -0.07409036 -0.15016513
000050 36 20 c9 bd 82 a6 15 be d0 44 24 3c b7 33 2d be
       -0.09820597 -0.14614299 0.010026172 -0.16914259
000060 03 55 90 bd ce 72 a4 3d 02 17 96 3d 4e b3 ed 3d
       -0.07047465 0.0802971 0.07328607 0.11606465
000070 4a 32 f7 3d 4e 2c cc 3d 0a 89 60 bd 3f 05 18 be
       0.12070139 0.09969388 -0.05481819 -0.14845751
000080 8c 8c 10 be 99 8b 19 3e ad 7e dc bd 08 ee cc 3c
       -0.14116114 0.14994659 -0.10766349 0.025015846
000090 d0 7e 83 bd 40 94 36 bd 90 c0 69 bc ca 59 31 be
       -0.06420672 -0.044574976 -0.014267102 -0.17319408
0000a0 4f fd f0 bd c6 c5 f3 3d f4 dc 41 bd a0 68 a4 3c
       -0.11767065 0.11902957 -0.047329858 0.02006942
0000b0 5c 4e 64 3d 00 b6 6e 3b 4b 1a 32 3e 59 b8 9b bd
       0.05573879 0.0036424398 0.17392842 -0.07603521
0000c0 22 95 33 be 90 33 4d 3c 8b a4 be bd b8 c8 f4 3c
       -0.17537358 0.0125245005 -0.09308728 0.029880866
0000d0 2b 0b 2c be b9 71 d0 bd a1 3e 8c bd 6d 44 21 3e
       -0.16801135 -0.10177941 -0.06847883 0.15748759
0000e0 9f 4c ce bd 72 d4 9d 3d 89 c5 21 3e 1c d0 28 bd
       -0.10073208 0.07706536 0.1579801 -0.041214094
0000f0 25 0b 19 3e d6 a1 a0 3d 14 31 26 be bb 83 0a be
       0.14945658 0.07843368 -0.1622966 -0.13526814
000100 e4 db 2d bd b8 b7 ed 3c c0 13 13 bd 54 d8 8f 3d
       -0.042446032 0.029018268 -0.035907507 0.07023683
000110 6e 0e a9 3d cb 23 08 3e b6 be 58 bd 66 22 ff 3d
       0.08254705 0.13294904 -0.05291625 0.12457733
000120 92 83 b6 bd da 71 99 3d ec 98 0c be 7a 78 96 3d
       -0.08911814 0.074924186 -0.1373021 0.07347198
000130 a0 70 3e bd a6 1f 0b be 7c 74 58 bd 69 ff 1a 3e
       -0.046494126 -0.13586292 -0.052845463 0.15136494
000140 d9 55 93 bd 99 3b 31 3e 65 24 21 be 7a df af 3d
       -0.071941085 0.17307891 -0.1573654 0.08587547
000150 a1 2b 1f 3e 40 f6 60 3d f9 d6 28 3e 89 4a d6 bd
       0.15543987 0.054922342 0.16488256 -0.10463435
000160 f8 d3 09 be 2e cb 2e be fc 19 04 bd c5 a0 e3 bd
       -0.13459766 -0.17069694 -0.032251343 -0.11114649
000170 20 c6 98 3b 3a 51 ea 3d 78 1c 7f 3d 3c b5 95 3d
       0.00466229 0.11441274 0.06228301 0.07309958
000180 18 e3 82 3c f3 6f 29 3e a4 7a 09 be c0 7d 94 bd
       0.015977427 0.16546611 -0.1342569 -0.072505474
000190 a4 6a 3e bd e4 df 82 bd 41 9e 8e bd 11 f5 0d 3e
       -0.04648842 -0.0639036 -0.06963778 0.13863017
0001a0 80 43 cb bd 2e 8c a6 3d b9 65 23 3e 5e dc 2e be
       -0.09924984 0.08132206 0.15956773 -0.17076251
0001b0 9e 2f 97 3d 82 dd 14 be 2c 57 cc bd ea 0c f3 3d
       0.07382129 -0.14537624 -0.09977564 0.118676975
0001c0 c0 e5 5a bd bc e5 53 3d 10 2c 29 be 18 9b 85 3c
       -0.053441763 0.051732764 -0.16520715 0.016309306
0001d0 ea 62 90 bd 32 00 2a be ed 19 da bd 30 ee 3a 3c
       -0.07050116 -0.16601637 -0.10649476 0.011409327
0001e0 9f 65 24 3e e2 70 26 be d8 b9 f9 bc 38 f3 87 3d
       0.1605439 -0.16253999 -0.030484125 0.06638187
0001f0 e0 cc ee 3b 12 ba e0 3d 60 c1 f8 3c 5a 86 b8 3d
       0.0072876066 0.1097299 0.030365646 0.090100005
000200 00 0b ad bd 25 de 0a 3e c8 01 29 3d 0a 88 b4 3d
       -0.08449364 0.13561304 0.041261464 0.0881501
000210 ce 6f b6 3d 0f 9e 27 3e f8 14 4e bd ec 26 0d be
       0.08908044 0.16368888 -0.050312966 -0.13784379
000220 98 e8 4b bd a0 c0 14 be 20 c5 dd bb bc 6c 10 3d
       -0.049782366 -0.14526606 -0.006767884 0.035259947
000230 18 1e 26 3d c8 5d 63 bd 96 74 ee 3d 05 fc 28 be
       0.040556043 -0.05550936 0.11643331 -0.16502388
000240 8c cb 33 be 1e f7 b2 bd 10 2f 26 be 1e df d1 3d
       -0.17558116 -0.0873854 -0.1622889 0.10247634
000250 96 72 c0 3d e6 bb 20 be 99 6f e8 bd 42 24 a3 3d
       0.093968555 -0.15696678 -0.113494106 0.079659
000260 d4 0c cc bd e1 44 fa bd b8 78 3a 3d a0 d5 8a 3b
       -0.09963384 -0.12220169 0.045525283 0.004236892
000270 1f 34 9d bd 50 58 4b 3d 9c 6a 2e bd d6 c5 e9 3d
       -0.07675957 0.04964477 -0.04258214 0.11414687
000280 c0 98 89 bc 80 e1 84 3b 00 28 91 39 3e 74 e5 bd
       -0.01679647 0.004055202 0.00027686357 -0.11203812
000290 dd 1f 1c be 5e 7b 84 3d fe f3 a1 3d cd 1e 0d 3e
       -0.1524653 0.06468843 0.07907866 0.13781281
0002a0 55 5f 88 bd 3f dc 28 3e 8c de 27 be 22 63 d8 bd
       -0.06658808 0.16490267 -0.16393489 -0.10565783
0002b0 6a fb 1e be 44 58 1d bd 40 10 0c 3c 6c 73 30 be
       -0.15525594 -0.038414255 0.008548796 -0.1723153
0002c0 cb b3 89 bd bc 56 8f 3d 56 3c ca 3d d9 bd 05 3e
       -0.06723746 0.06998965 0.098747894 0.13060702
0002d0 22 7b c1 3d cd 0e 24 3e e4 d3 59 3d c5 ef a3 bd
       0.09447314 0.16021271 0.05318059 -0.08004717
0002e0 bb 85 9a bd df ae f3 bd d0 8b 32 bc d6 1e 6a bd
       -0.07545038 -0.118985884 -0.010897592 -0.057158314
0002f0 b8 f9 20 bd 50 ad 09 3c 53 b2 13 3e 22 93 0b be
       -0.03930065 0.008403137 0.14423494 -0.13630345
000300 05 53 82 bd 70 3a 2a 3c 3a 4c 0c be 82 2d a5 3d
       -0.06363491 0.010389909 -0.13700953 0.080653206
000310 40 99 8f bb 34 0f e3 bd e0 97 bc bc fd d1 8f bd
       -0.0043822825 -0.11086884 -0.023021638 -0.07022474
000320 1d 44 03 3e 02 56 d9 3d 31 7e 01 be 01 80 20 3e
       0.12818952 0.10612108 -0.12645794 0.1567383
000330 65 2b 07 3e ae 8d da 3d b7 f5 07 3e 6a 6e ba bd
       0.13200147 0.106715545 0.13277327 -0.09103091
000340 29 23 1a 3e 10 be ac 3c 33 80 1c be ac 74 46 3d
       0.15052475 0.021086723 -0.15283279 0.04845111
000350 5f 48 b0 bd bb 72 1d be 73 fa dd bd 74 58 78 3d
       -0.08607554 -0.15375797 -0.10838785 0.06063123
000360 bb a8 db bd 30 dd 27 be 68 f5 c2 bc 84 d6 2a 3d
       -0.10725542 -0.1639297 -0.02379866 0.041708484
000370 e2 3a df 3d 60 5f cc 3c 1f 3c e6 bd d7 16 2f be
       0.10899903 0.024947822 -0.11241936 -0.17098556
000380 2c 9d 0e be fc 07 38 bd 6d 22 c8 bd 40 e5 1a be
       -0.13927144 -0.04492949 -0.09772191 -0.15126514
000390 81 b2 2c 3e a5 76 01 3e 88 eb 14 be 56 3d e7 3d
       0.16864969 0.12642916 -0.14542973 0.11290996
0003a0 a0 8f ff 3c d0 9d 96 3c 80 0e e5 3c 98 df 2b bd
       0.031196415 0.018385798 0.027961016 -0.041961282
0003b0 e0 bd 25 bc b6 c3 eb 3d 39 91 0d be a8 93 30 be
       -0.0101160705 0.11511938 -0.1382493 -0.17243826
0003c0 9d 89 ac bd 16 62 b9 3d 00 60 9f ba 0c 1a 2d bd
       -0.08424685 0.090519115 -0.0012159348 -0.04226117
0003d0 bb c6 1a 3e 44 b5 03 bd 76 fb fb bd f4 25 38 3d
       0.15114872 -0.03215529 -0.12303822 0.04495807
0003e0 9f 4d 9f bd 34 1e 52 bd aa 0c af 3d 00 9e 67 3d
       -0.07778477 -0.051298335 0.08547337 0.056547165
0003f0 f8 08 c8 bc e8 57 5e 3d d0 84 d1 bd f0 e3 a5 bc
       -0.02441834 0.054283053 -0.1023041 -0.02025029

linear_3.bias f4 [24]
000000 8e 1b 14 be db 1d 2d be 14 11 25 bd fd 83 fa bd
       -0.14463636 -0.1690592 -0.04029949 -0.12232206
000010 ab 34 26 3e d9 1b 22 3e 96 76 fc bd 3e ea 1b be
       0.16231029 0.15830936 -0.12327306 -0.15226075
000020 76 6c 8b 3d eb 39 ca bd 9e e9 f0 3d b6 48 e1 bd
       0.06807797 -0.09874328 0.11763309 -0.11000197
000030 d2 8a ec 3d ae 0a cb bd e4 cc 23 3d e6 89 dd 3d
       0.115499154 -0.09914146 0.03999032 0.10817318
000040 ba 3c 80 3d 20 27 1c bc 76 ed 27 be d0 5d 01 3c
       0.06261583 -0.0095308125 -0.16399178 0.007895902
000050 9c ae 73 3d 23 ce 9d bd 50 29 fc bd 37 0b 2a 3e
       0.059492692 -0.07705333 -0.12312567 0.1660584
