save/DQL.pth (torch, 47063 bytes, 6 tensors)

linear_1.weight f4 [64, 129]
000000 6f 76 28 bd 57 7d ae bd 0e 74 85 3d 80 e0 74 3c
       -0.041128572 -0.085200004 0.06516276 0.014946103
000010 9c 3a 7f 3d 06 fb 0f 3d 04 2e 47 bd 56 ba 6f bd
       0.062311754 0.035151504 -0.04862787 -0.058527313
000020 a0 20 4a bc 36 a6 87 bd 00 10 13 bc dc b0 be 3c
       -0.01233688 -0.06623499 -0.008975983 0.023277692
000030 9f c4 06 bd 09 57 2e bd 00 f5 67 bb 2c 7e 3e 3d
       -0.032902356 -0.042563472 -0.0035393834 0.046507046
000040 10 9c 67 3c 08 30 6c 3c 23 9f 8e bd 68 69 a3 3d
       0.014136329 0.014415748 -0.06963947 0.07979089
000050 50 dd f1 bc 10 1a 9a 3c 60 21 35 3c 80 b6 96 3d
       -0.029524475 0.018811256 0.0110553205 0.07359028
000060 58 f6 0f 3d c0 00 12 3b 90 db 49 3c 38 c8 35 bc
       0.03514704 0.002227828 0.012320414 -0.011095099
000070 5a 18 88 bd 9a 82 9e 3d 65 ef 90 bd 78 58 a9 3d
       -0.0664527 0.07739754 -0.07076911 0.08268827
000080 3c e4 9a bc d8 5b 88 3d f0 6b a1 3b bc aa e9 bc
       -0.018907659 0.06658143 0.004926197 -0.028523795
000090 71 df 2a bd e0 b0 ab 3b bf b0 55 bd 0d dc 53 bd
       -0.041716997 0.005239591 -0.05217051 -0.05172353
0000a0 b4 5e 61 bd 90 36 0f 3c ef 43 ad bd 1c 60 d9 3c
       -0.055021957 0.008741036 -0.08460223 0.026535086
0000b0 ab e5 5c bd 22 6d 1e bd 2c 5c 27 3d 46 db 7e bd
       -0.053929966 -0.038678296 0.040859386 -0.062220834
0000c0 0e fb 0f 3d f0 b1 9d 3d a8 b9 9d 3c 7e 1b 46 bd
       0.035151534 0.076999545 0.019253567 -0.048366062
0000d0 dc e1 ad 3c 9f ef 25 bd 88 16 2e bd 1f 94 a6 bd
       0.021225862 -0.040511724 -0.042501956 -0.081337206
0000e0 0e 11 d3 bc f0 21 ab bd ec 80 28 bd 28 01 30 3d
       -0.025764968 -0.083560824 -0.041138574 0.042969853
0000f0 d8 fc 2d 3d 9c 5b f0 bc 08 d0 38 bd 16 cb 9c 3d
       0.04247746 -0.029340558 -0.04512027 0.07655923
000100 5e 3f 93 bd 62 f2 87 3d 1e a3 a7 3d a0 82 ac 3d
       -0.07189821 0.06638028 0.08185409 0.08423352
000110 ee 26 99 bd 58 a0 14 bd 50 e4 cc bc e0 59 81 3d
       -0.074781284 -0.03628573 -0.025011212 0.063159704
000120 80 8f 0d bb 05 47 4b bd b0 c9 74 bd 97 1d 8d bd
       -0.0021600425 -0.049628276 -0.059762657 -0.068904094
000130 40 fe 84 bd 5e 72 93 3d 8e 57 8c 3d 40 54 a0 bd
       -0.06493807 0.07199548 0.06852637 -0.078285694
000140 fb f7 81 bd d8 ef cd 3c 38 6a af 3d 98 cf 32 3d
       -0.06346127 0.02513878 0.085651815 0.043655008
000150 c4 36 91 bd 18 0e 96 bd 00 1c ac ba 2c 21 09 bd
       -0.07090524 -0.07326907 -0.0013130903 -0.0334789
000160 30 21 9d bd 9a 4b 8d bd 68 09 8a bc e6 91 55 bd
       -0.07672346 -0.068991855 -0.016850188 -0.052141093
000170 9c ad 6e 3d 15 64 5a bd e0 20 0a 3b d8 3d a0 bd
       0.058271036 -0.053318102 0.0021076724 -0.07824296
000180 5f 3d 77 bd 9a 35 a5 3d 42 47 b2 3d 8f 6c 56 bd
       -0.060361262 0.08066864 0.087049976 -0.052349623
000190 48 58 f3 bc 24 41 20 3d c1 3b 95 bd 84 20 91 3c
       -0.029705182 0.039124623 -0.07286788 0.0177157
0001a0 5e ec 81 3d 18 88 27 3d 7c e7 c4 3c d4 71 ae bd
       0.063439116 0.040901273 0.024036162 -0.08517805
0001b0 a8 a5 c9 bc 1c 44 b3 3c a2 4a 0f 3d dc ed 8e 3c
       -0.024615124 0.021883063 0.034983285 0.017447405
0001c0 e0 18 10 3d 20 d9 1a bc c8 ae 9f 3d 70 b3 91 bb
       0.035179973 -0.009451181 0.07797009 -0.0044464394
0001d0 8a 14 90 3d 43 6e ad bd 96 af 80 3d 40 e1 66 bb
       0.070351675 -0.084682964 0.0628349 -0.0035229474
0001e0 20 88 2a bd f8 63 c1 3c 58 a7 97 3c dd e6 8c bd
       -0.041633725 0.02360724 0.018512413 -0.06879971
0001f0 30 0a 3e bc b0 d2 25 3c a8 01 93 bd da 0b 02 bd
       -0.011599109 0.010121033 -0.0717805 -0.031749584
000200 20 77 92 bb 77 5d 19 3d 5f fc 26 3e f4 22 29 3e
       -0.004469767 0.03744265 0.1630721 0.1651724
000210 5b 1d 1a 3e 8c d0 1e bd 0c 91 2f 3d e0 c4 13 3e
       0.1505026 -0.038773105 0.042862937 0.1443057
000220 6e f8 23 bd 1d 11 d9 3d ae 44 23 3d 21 f4 19 3e
       -0.040031843 0.10598967 0.03986042 0.15034534
000230 31 ca e0 3d 98 87 ce 3d de 94 16 3e b7 04 46 be
       0.10976065 0.10084456 0.14705226 -0.19337736
000240 e7 95 41 3d f8 40 1f 3e 15 15 69 3d c1 1a b7 3d
       0.0472621 0.15552127 0.05690487 0.0894065
000250 75 c9 81 bd d4 a0 0b be f0 f6 da bc e8 bf 66 3d
       -0.06337253 -0.1363557 -0.026729077 0.05633536
000260 35 69 55 3d 18 0c c4 bd 50 36 84 bd e7 bb 2b 3e
       0.052102286 -0.09572619 -0.06455672 0.16770898
000270 f3 0c 37 3e be bc 11 3e 0b 6c 05 3e de b2 f7 bc
       0.17876033 0.14232156 0.13029496 -0.030236658
000280 84 b0 06 be c0 fb 2f 3e 94 3e 14 be be 0b 32 bd
       -0.13153273 0.17185879 -0.14476997 -0.04346823
000290 6a 94 1f 3c 5a 54 97 3d 23 5f 14 be 32 71 98 bd
       0.0097399745 0.07389136 -0.14489417 -0.07443465
0002a0 19 09 34 be a9 f5 2c 3d 31 73 13 3e 49 a5 1a 3d
       -0.17581595 0.042226467 0.14399411 0.037755284
0002b0 8b 60 30 3e fa 62 10 3e 4d d9 88 bc 85 cc 18 3e
       0.17224328 0.14100257 -0.01670518 0.14921768
0002c0 d9 44 6d be a8 48 2d 3d c1 21 eb 3d 99 2a 0a 3e
       -0.23170795 0.04230562 0.114810474 0.13492812
0002d0 de ea 04 be fc 3f 9a bc 5c df 68 bc bc a0 6d bd
       -0.1298022 -0.018829338 -0.014213409 -0.058014616
0002e0 ee 4b 16 3e 0c 90 dd 3c 50 dc 31 3e 9a 56 02 3d
       0.14677402 0.027046226 0.17369199 0.03182087
0002f0 76 be d7 bd 3f 7c 25 bd d0 ba 70 3c 88 eb f9 3c
       -0.105343744 -0.040401693 0.014692977 0.030507818
000300 20 41 62 3d 13 50 e9 3d 87 89 80 be cf 0b 20 3e
       0.05523789 0.11392226 -0.25104925 0.15629505
000310 4d 11 d7 3c 6c a6 9f 3d cc 2e 8b 3c 2b b8 97 3d
       0.026253367 0.07795414 0.016990088 0.07408174
000320 15 0b 64 3c 9e 10 1a 3e 4b eb ab bc 95 15 47 bd
       0.013918658 0.15045401 -0.02098622 -0.048604567
000330 f8 33 c1 3d 25 da ee bd 62 23 20 3e 45 6a db 3d
       0.094337404 -0.116627015 0.15638497 0.10713629
000340 75 1d 2a 3e d1 4d 6d 3d 06 73 85 bd ef 5f 4d 3d
       0.166128 0.05793554 -0.065160796 0.050140318
000350 ac 4d 2f 3e c9 14 37 3d 90 ad 1a be 79 2b 08 be
       0.17119473 0.044697557 -0.15105271 -0.13297834
000360 fa 5b 02 3d 55 4f 60 3d a0 96 a8 3c 8b 65 af 3d
       0.031825997 0.054763157 0.020579636 0.0856429
000370 61 40 65 bc bb 78 38 3e 1a 7f 16 be 6a 2c 47 3c
       -0.0139924 0.18014805 -0.14696923 0.012156585
000380 4e ad 8a 3d 04 ce 3f bd 5e fc e6 bd d8 9e ab bc
       0.067713365 -0.04682733 -0.11278604 -0.020949766
000390 d6 79 28 bd b4 e9 2b bd b9 e0 1f be c4 e9 86 bd
       -0.041131817 -0.041970924 -0.15613069 -0.06587556
0003a0 3f 95 ec 3c 18 f0 b5 3d 1e 1f 22 3e 95 8f c6 3d
       0.02887976 0.08883685 0.15832183 0.09695355
0003b0 99 b7 24 3e 41 35 d0 bc 5e 1c 96 bd 0d 47 b1 bc
       0.16085662 -0.025416018 -0.07329629 -0.021640325
0003c0 a9 4a 09 3e 34 f6 95 bd 19 9e 19 3e 34 3c 03 3d
       0.13407387 -0.0732235 0.15001716 0.032039836
0003d0 ad d5 b2 3d 58 20 80 3c 2f e8 52 3d 32 33 ae 3d
       0.08732162 0.015640423 0.05149096 0.085058585
0003e0 02 59 de bd e7 32 32 be fd 66 ce bd e5 61 13 be
       -0.10856821 -0.1740223 -0.10078237 -0.14392813
0003f0 9c c0 1d be 08 e8 f6 3d 74 46 3b 3e 08 00 3c 3d
       -0.15405506 0.12055975 0.18288594 0.045898467

linear_1.bias f4 [64]
000000 ec 7c 7d 3d 10 d1 22 3d d8 4d 4b 3d 83 dd 9b 3d
       0.061886713 0.03975016 0.049634784 0.076106094
000010 fc 61 89 3d 08 7f 19 3e c1 d9 bc 3d b4 6d 75 bd
       0.06708142 0.14989865 0.09221221 -0.059919074
000020 c8 fb 0f 3c 88 b1 2b 3c 14 e0 5a 3d f0 4c 84 bb
       0.008788057 0.0104793385 0.053436354 -0.004037492
000030 ec 68 c9 3c 5d 1f a1 bd 5c d0 3c 3d 65 c4 4d bb
       0.024586163 -0.0786731 0.046097144 -0.0031397578
000040 2b 2e 07 3d 46 7a ff bc e7 7a 84 3e 06 00 ed bd
       0.033003014 -0.031186234 0.25875017 -0.1157227
000050 fe 7b 92 3d 3e 98 07 3d 16 eb 62 bd b7 c3 09 be
       0.07152556 0.033104174 -0.055399977 -0.13453566
000060 ea f1 d3 3c b1 e1 f0 bd f7 38 b3 bd 7f 16 37 be
       0.02587219 -0.11761797 -0.087510996 -0.17879675
000070 80 f8 f2 bb ee 65 e9 3d 15 eb b8 bd 5a f4 12 3e
       -0.0074148774 0.11396395 -0.09029213 0.14351025
000080 51 4d 96 3d 18 71 ae bc e2 0c 46 bd 31 0e 9d bd
       0.07338966 -0.021294162 -0.04835213 -0.076687224
000090 ac 47 e8 bd 82 55 25 3e 35 14 fa 3d 85 f8 3c 3e
       -0.11341795 0.161459 0.122108854 0.18454178
0000a0 18 7c d3 bc f4 7d 3b 3d f7 2f ad bd 01 1d 13 be
       -0.025816008 0.045774415 -0.08456414 -0.14366533
0000b0 66 44 0a 3e a4 a7 38 3d 28 e4 21 3e 8b 54 e3 bc
       0.13502654 0.04508175 0.15809691 -0.027750274
0000c0 10 b8 8d bd f9 d7 57 3d 5d 33 bf 3d 08 fb 35 3d
       -0.06919873 0.052696202 0.09335969 0.044428855
0000d0 f8 48 a3 bd 80 09 9f ba a8 e3 18 3d 7a 79 2b be
       -0.07972902 -0.0012133569 0.037326485 -0.16745558
0000e0 cc 4b a6 bd e8 37 62 ba b8 85 2a 3c 4b 11 c1 bd
       -0.08119926 -0.00086295465 0.010407858 -0.094271265
0000f0 07 19 41 3e 12 83 9d 3d 33 b1 30 3e cd 67 1b 3e
       0.18857203 0.07691015 0.17255096 0.15176316

linear_2.weight f4 [32, 64]
000000 70 38 f0 bd fd ee e5 bc 2f 92 32 be 27 28 a4 bd
       -0.117295146 -0.02806806 -0.17438577 -0.08015471
000010 8f 3c a7 bc 60 bd bd bb ae 30 11 bd d9 01 d3 bd
       -0.020414619 -0.0057903975 -0.035446815 -0.10303087
000020 e4 16 12 3d 90 99 fb bc 2a b4 d7 3d ca 71 f9 3d
       0.03566636 -0.030712873 0.105324104 0.12179907
000030 b2 aa f7 3d 48 dd f4 3d c2 a3 98 3d 9a ae 42 be
       0.120931044 0.119562685 0.07453109 -0.19011918
000040 22 8f 89 bd e1 f5 b2 bd 98 15 c1 3d 3b 38 48 be
       -0.067167535 -0.08738304 0.09427947 -0.195527
000050 d5 85 9a 3c 3e dc d1 3d 3e 81 2e be 80 09 7f 3c
       0.018862644 0.10247086 -0.1704149 0.01556623
000060 78 2d 64 3d 18 90 19 be 25 1b 22 bd e8 6f 91 bc
       0.055707425 -0.14996374 -0.03957667 -0.017753556
000070 68 91 e9 bd 27 21 b8 bd 60 38 17 be d2 96 bb bc
       -0.11404687 -0.08990698 -0.14767599 -0.022899065
000080 d8 3f 9c 3c e6 50 a7 3d 88 5c 2c 3d 40 21 0e 3c
       0.019073412 0.08169727 0.042080432 0.00867492
000090 50 3b bf 3c c2 e9 ee bd 91 73 36 bd f4 96 fe bd
       0.023343712 -0.116656795 -0.044543806 -0.12431136
0000a0 50 12 31 bc 58 96 a1 bc a0 19 df bc 58 1f df 3c
       -0.010807589 -0.01972501 -0.027233899 0.027236626
0000b0 d4 f2 50 3d 7c 89 51 3d 12 ee 93 bd 30 51 f8 bd
       0.05101283 0.051156506 -0.07223143 -0.1212486
0000c0 08 de 45 3d 4e b4 43 be 21 f6 b5 3c 40 1b 3c bc
       0.04830745 -0.1911175 0.02221209 -0.011481106
0000d0 bc 29 e2 bd a8 56 c6 bc 7e 28 f2 3d 99 7f ff bc
       -0.110431165 -0.024211243 0.118241295 -0.031188773
0000e0 b4 cf e1 bd e4 5b bf 3d 0e 8b e1 bd 20 c7 2d be
       -0.11025944 0.093436986 -0.11012851 -0.16970491
0000f0 20 89 00 be a0 d0 0b 3d 0c bc 36 bd 39 c7 fc bd
       -0.12552309 0.034134507 -0.04461293 -0.12342686
000100 b8 f2 bb bc a1 cd 11 3e 3f 6b 95 3d ca 2e 85 3d
       -0.022942886 0.14238597 0.07295846 0.06503065
000110 ae bf 05 3d 75 dc 54 be f3 a2 08 3d e2 7f 9d 3d
       0.032653503 -0.20787223 0.033358525 0.07690407
000120 b8 5b 55 bd f0 25 16 bc c8 32 1b bd 80 3c 8a 3a
       -0.052089423 -0.009164318 -0.037890226 0.0010546595
000130 e8 82 e1 3d 47 6b bd 3c 96 dd df bd c7 6f 01 3e
       0.110112965 0.023122443 -0.10930936 0.12640296
000140 c8 fd 7d bd cf 0a de bb ca 12 b4 bd f6 4c ce 3d
       -0.062009603 -0.006776191 -0.08792646 0.10073273
000150 5d e1 20 3e 06 81 8b 3d a5 62 38 3e 1b 99 4c be
       0.1571097 0.06811719 0.1800638 -0.1998028
000160 e4 f0 73 bd be 50 15 3e 7e 28 af 3d 7e 98 0b bc
       -0.059555903 0.14581582 0.08552645 -0.008520244
000170 7c ad 4b bd 40 1e 19 3e f0 e8 78 bb 87 d0 04 be
       -0.049725994 0.14952946 -0.0037980638 -0.12970172
000180 f5 60 34 be ec c2 78 bd 30 d1 ef bd 14 8a a2 3d
       -0.17615111 -0.060732767 -0.11709821 0.079364926
000190 9c 62 69 3d fc 12 f1 bd d2 7e ed bd 1f b5 d3 3d
       0.056978807 -0.11771199 -0.11596455 0.103372805
0001a0 88 c2 fe bc d8 31 e6 bc 54 ce 42 be ec 09 63 be
       -0.03109862 -0.02809994 -0.1902402 -0.22171754
0001b0 b5 ad 57 be 34 bf bf 3d f8 80 38 bd 86 e2 81 bc
       -0.21062358 0.09362641 -0.04504487 -0.015855085
0001c0 d1 73 0b be 84 04 ee bd 18 55 68 3d c0 f2 7a bc
       -0.13618399 -0.11621955 0.056721777 -0.015316665
0001d0 89 7d 4f 3e 10 b0 82 bc b4 a8 3d bd 19 2d 7e 3d
       0.20262732 -0.015953094 -0.046303466 0.062054727
0001e0 de 0c c9 3d 9f d5 f4 bd 1c 09 db bd 91 82 a3 3d
       0.09816907 -0.119548075 -0.10695097 0.07983888
0001f0 5a f1 d5 3c d8 92 96 3c ec 96 17 3d d6 50 14 3e
       0.026116062 0.018380567 0.037009165 0.14483961
000200 90 62 33 bd fa 30 d1 3d 19 2f 9e 3d a7 5a 64 3e
       -0.04379517 0.1021442 0.07723827 0.22300206
000210 e1 13 a1 3d 96 5d ea 3d 94 b0 76 3e 98 c5 cb 3c
       0.0786512 0.11443631 0.24090797 0.024874493
000220 98 03 55 3d e6 9e eb 3d 28 44 fd bc 88 20 ae 3c
       0.05200538 0.11504917 -0.030916288 0.021255746
000230 58 80 c6 3d c2 71 da 3d 6d 16 52 3d 33 7b 6a 3d
       0.096924484 0.10666229 0.05129092 0.0572464
000240 9b a7 7c bd 0c 5a f7 3d 6a 67 6b 3e 38 4b d0 bd
       -0.06168328 0.12077722 0.22988668 -0.10170597
000250 47 85 71 3e 20 5b cc 3d 42 4d a8 bd bd f7 04 3e
       0.23585998 0.09978318 -0.08217861 0.1298513
000260 fc c8 5e be 3a 70 a5 3d ca a6 b5 bd 5c d3 76 bd
       -0.21756357 0.08078046 -0.08869703 -0.06026016
000270 40 ef 17 bb 6e 96 5d 3d 08 35 8e bc bc 4a 6e 3e
       -0.0023183376 0.05409854 -0.017359272 0.23270696
000280 65 c0 dc bd b0 05 5c bd e0 09 0f 3d 44 e2 6d bd
       -0.10778884 -0.05371636 0.034921527 -0.05807711
000290 a4 ec 39 be 8a ea 86 bd 45 5c 64 3e 5b 60 84 3e
       -0.18156677 -0.065877035 0.22300823 0.25854763
0002a0 a4 be 79 3d 0c 33 66 bd a3 7b 0a 3d b6 e3 d1 3d
       0.060972825 -0.056201026 0.033809315 0.102485105
0002b0 df 63 3f 3d 9a f6 a6 bd 11 85 12 3e fa f9 df bd
       0.046726104 -0.08152504 0.14308573 -0.10936351
0002c0 86 71 03 bc ac 9e 5a 3e 41 8e 42 3e 18 55 90 bc
       -0.008022672 0.21349591 0.18999578 -0.0176187
0002d0 90 18 64 3d b4 6a 18 3d f8 a7 8e 3c be d9 d1 bd
       0.055687487 0.037211135 0.017414078 -0.10246609
0002e0 20 01 95 3d c6 2c d2 bc 55 08 d6 3d f4 24 00 bd
       0.07275605 -0.025656115 0.10450808 -0.03128524
0002f0 47 f8 54 3e a8 f0 25 bd 96 47 19 bd eb ef 4f 3e
       0.20797835 -0.04051271 -0.037421785 0.20306365
000300 9c c4 d3 3d 90 eb ce bd 94 47 e4 3d 68 7a cc bc
       0.10340235 -0.10103524 0.11146465 -0.024960712
000310 5e 8f db 3d ca f2 dc bd da 10 c8 bd 80 7a 41 3d
       0.107207045 -0.10788496 -0.09768839 0.047235966
000320 f0 20 8f bd f4 b8 1e bd f0 14 60 bc 40 17 de 3c
       -0.06988704 -0.038750604 -0.013676867 0.027110696
000330 98 2e c7 bd 30 98 77 3c d0 1c 34 bd 50 65 c1 bc
       -0.09725684 0.015111968 -0.04397279 -0.02360788
000340 38 47 f7 bd 48 84 73 3d f0 48 63 bc e0 7c 9f bb
       -0.12074131 0.059452325 -0.01387237 -0.004867181
000350 e0 c4 12 bd 96 1e da bd 34 cb 79 3d 0c 69 61 3d
       -0.035832286 -0.10650365 0.060984805 0.05503182
000360 2e 36 c3 3d 0a 44 f3 3d e8 c2 7f 3d 64 79 97 3d
       0.09531818 0.11878212 0.062441736 0.073962
000370 28 bc 3e 3d cc b5 b5 3d b0 17 97 bd 12 d5 b8 3d
       0.04656616 0.088725656 -0.07377565 0.09025015
000380 68 89 7f bd f2 f5 f6 3d 20 cb c2 3b f0 e2 28 3d
       -0.0623869 0.12058629 0.0059446245 0.04123205
000390 68 6a 1c bd c0 c8 1c 3d c8 6f 0b bd a0 a4 82 bd
       -0.038187414 0.038277388 -0.03404215 -0.06379056
0003a0 2c 64 ee bd b4 ea b8 bd 92 95 ce 3d c0 6e 8b 3b
       -0.116402 -0.09029141 0.10087122 0.004255146
0003b0 70 4c 45 bd 06 2c a5 bd 94 85 f0 bd a4 7c 44 bd
       -0.0481686 -0.080650374 -0.11744228 -0.04797043
0003c0 98 77 a3 bd a4 4c 1b 3d 60 5b 32 3d a4 a7 87 3d
       -0.07981795 0.037914887 0.043544173 0.06623772
0003d0 20 8b 66 3c e0 df a8 bd 2c 80 76 bd 40 a7 7b 3d
       0.014071256 -0.08245826 -0.060180828 0.0614388
0003e0 94 68 c0 3d c0 61 e9 3b 74 58 96 bd c8 e8 13 3d
       0.09394947 0.0071222484 -0.0734109 0.03611067
0003f0 b0 f8 a0 3d 38 6f 8a 3d f8 8e 0f 3d 9c bf a3 bd
       0.078599334 0.067594945 0.035048455 -0.07995531

linear_2.bias f4 [32]
000000 e1 71 34 be 71 f6 92 3d a9 84 c7 3d 00 90 d8 b8
       -0.17621566 0.07175911 0.097421 -0.00010326505
000010 9f 68 4e 3e b8 f6 fe bc e8 cc 31 3e c6 1b a9 bd
       0.20157097 -0.031123504 0.17363322 -0.082572505
000020 2f 3d b3 3c 6f 7a 5b 3e 8f b3 1b 3d 32 60 20 3e
       0.02187976 0.21433423 0.038013037 0.15661696
000030 54 81 32 3e 8b 66 1f be 3c fe ff bd a0 9b fc bc
       0.17432147 -0.15566461 -0.12499663 -0.030835927
000040 68 aa 5e be ee 84 8b bd 35 08 32 3e 73 75 f6 bb
       -0.21744692 -0.06812464 0.17385943 -0.0075213253
000050 5c 08 45 be 39 1e 9f bd 2e 04 0e 3e 27 c7 8d 3d
       -0.1924147 -0.077694364 0.13868782 0.06922751
000060 d6 7d 60 3e 15 ff 00 3e 9c 06 1c 3e 53 25 8b 3e
       0.21923003 0.12597306 0.15236896 0.27176914
000070 9b e1 44 be 40 0b 0c 3d fb d6 0f be 9c c8 25 bd
       -0.19226687 0.034190416 -0.14046852 -0.04047452

linear_3.weight f4 [27, 32]
000000 7f 90 46 3e 77 b9 0e 3e 44 77 32 3d 40 6e a3 3b
       0.19391058 0.13937937 0.04357077 0.004987508
000010 77 6b b6 bd c9 bf 34 3e 94 c9 81 3e 13 22 12 be
       -0.08907216 0.17651285 0.25349104 -0.14270811
000020 a2 3d 5b 3e bc b4 06 3e f7 5a a4 bc 65 84 06 3e
       0.2141023 0.13154882 -0.020062907 0.13136442
000030 83 bd e4 3d 88 53 62 3d fa 6d 22 be ac 17 69 3d
       0.11168959 0.055255443 -0.15862265 0.05690734
000040 7c 55 c9 3d 55 3b 32 3e e2 68 6d 3e 10 32 31 3e
       0.09830758 0.17405446 0.23184541 0.17304254
000050 5d d3 d0 3d 0a 37 bb 3d 58 12 fa bd 75 4e 05 3e
       0.10196564 0.09141357 -0.1221053 0.1301821
000060 0c 8b 81 3e f4 d3 38 3e d8 5a 83 3e b6 0f 82 3e
       0.25301397 0.18049604 0.25655246 0.25402611
000070 89 ad 79 bd 1e ec d0 3d 56 e9 ea 3d 35 4e 26 be
       -0.06095651 0.10201286 0.114702865 -0.16240771
000080 df ea 90 bc 50 c5 40 3e 70 f1 5d 3c d3 d3 1d 3e
       -0.01769012 0.18825269 0.013546333 0.15412836
000090 71 8d d1 bd c8 35 3f 3d 49 a9 b2 bc 48 d9 39 3d
       -0.10232056 0.04668215 -0.021809237 0.04537323
0000a0 a5 a3 2c 3e af 98 60 3e 8b f1 85 3e 88 3c 14 be
       0.168593 0.21933244 0.26160845 -0.14476216
0000b0 c1 11 8a 3e d8 b0 fa bc 4e 3b 86 3d 5a 03 cb 3d
       0.2696667 -0.030601904 0.0655428 0.09912749
0000c0 a7 a2 c4 3d 97 f9 2f be e7 e2 5c 3e 3b 09 a5 3d
       0.09601336 -0.17185055 0.21570931 0.08058401
0000d0 87 b3 3f 3e 91 14 cd bd dc fc 32 be 91 75 9a bd
       0.18720828 -0.10013688 -0.1747927 -0.07541955
0000e0 17 53 57 bc 87 10 04 bd b5 04 fc bc 4a 6d 3f 3e
       -0.013142369 -0.032242324 -0.030763963 0.18694034
0000f0 e1 7a 6a 3d d8 5e 13 bd b9 f0 26 be 60 5d 15 3d
       0.057246093 -0.035979122 -0.16302766 0.036466002
000100 3e be 4a 3d ca a3 13 3e c6 35 cc 3d 8b 99 e1 bd
       0.049497835 0.1441795 0.09971194 -0.11015614
000110 6e 7a 7a bd d1 67 14 3e 85 fa 1c 3e 01 ed 2c 3e
       -0.061151914 0.14492728 0.1532994 0.16887285
000120 bc 09 92 3d f4 e5 8c 3e 88 08 83 3d eb ee 24 be
       0.07130763 0.2751919 0.063981116 -0.16106765
000130 0e bb 83 3d c1 7a cf bd c3 32 26 3e 50 ab 24 be
       0.06432162 -0.10130835 0.16230302 -0.16080976
000140 4f 9b e2 3d e6 a4 9f 3d 29 a4 9c 3d 74 c6 7a 3d
       0.11064779 0.07795124 0.076484986 0.061224416
000150 23 2c d5 3c 20 cd e3 bc 2a a3 d6 3d a0 1a ab 3b
       0.026022023 -0.027807772 0.1048034 0.00522168
000160 61 81 4f 3e 8d ad 9b 3d 73 09 33 3e ec fa b3 bc
       0.20264198 0.076014616 0.17484073 -0.021970235
000170 58 6f 5b 3e 7b e4 23 3e 0e 92 08 be b5 b1 2d 3e
       0.21429193 0.16005127 -0.13336965 0.16962321
000180 ae 9d 88 3e b5 7d 6e 3e b0 32 83 bd c2 c2 d2 3d
       0.266828 0.23290141 -0.06406152 0.10291053
000190 bc f0 77 bd fc 49 3e 3d 9b 61 77 3e cd b4 21 3e
       -0.060532317 0.046457276 0.24158327 0.15791626
0001a0 ee a0 40 bd 17 bc 04 3e 0c 57 59 3e 70 b9 0b 3c
       -0.047028475 0.12962376 0.21224612 0.008528098
0001b0 63 5c 31 3e c2 fd fc 3d 9f 4e 27 be 0e db a7 bd
       0.17320399 0.12353088 -0.16338585 -0.08196078
0001c0 82 69 0c 3e c0 98 1a bb 73 28 81 3e 81 89 5d 3d
       0.13712123 -0.0023589581 0.25226173 0.054086212
0001d0 7f 34 34 3e 72 f5 5d bd 0e d0 83 3d c0 88 82 bb
       0.1759815 -0.054189153 0.06436168 -0.003983587
0001e0 30 55 70 3e 77 3f f4 bb 05 54 c6 bc 1b 3a 72 3e
       0.23469996 -0.0074538547 -0.024209986 0.23654978
0001f0 55 25 08 3d e1 b2 2c 3e 84 70 2c 3d c2 bf 63 bd
       0.033238728 0.16865112 0.04209949 -0.055602796
000200 0c 79 52 3d c4 57 3f bd c4 b0 64 3d 4a 1f a4 3d
       0.05138497 -0.04671456 0.05583264 0.080137804
000210 98 b7 69 3d a6 a2 a5 3d 05 a2 c5 bd d8 11 82 3c
       0.057059854 0.08087663 -0.096500434 0.01587765
000220 60 82 eb bb 2c 0f 04 3d 2f 30 bb bd a5 e2 f3 bd
       -0.007187173 0.03224103 -0.0914005 -0.119084634
000230 30 f7 03 be 80 18 21 bd 80 68 6f bc be a5 c3 bd
       -0.12887263 -0.039330006 -0.014612317 -0.09553097
000240 62 c8 f3 bd 69 81 06 3e e0 cf b5 bb fe c1 a7 3d
       -0.11903454 0.13135304 -0.0055484623 0.08191298
000250 04 45 77 3d d3 c1 21 3e d0 43 34 3c 98 82 f6 3c
       0.060368553 0.15796594 0.011002496 0.030091569
000260 28 b9 db bc fa c7 a1 3d a8 c3 f0 bd 31 e1 f4 bd
       -0.026821688 0.078994706 -0.117560685 -0.11957014
000270 06 28 e6 3d 52 14 e3 bd bc 65 62 3d 9a dc 7f bd
       0.112381026 -0.1108786 0.055272803 -0.06246624
000280 af 3f a4 3d cd 4d ae 3b dc 37 10 bd f0 5b 51 3d
       0.08019959 0.005319333 -0.03520952 0.05111307
000290 20 47 9c 3c 77 2d 8d bd 83 c1 7e 3e 39 43 da bd
       0.019076884 -0.06893437 0.24878506 -0.10657353
0002a0 c8 77 6f 3d 08 aa 75 3e 95 34 c2 3d 67 4f e8 bd
       0.05846384 0.23990643 0.094826855 -0.1134327
0002b0 30 ed 42 3e 16 76 f5 3d 6c cf 37 3d 72 ef 9f 3d
       0.19035792 0.11985414 0.044875547 0.078093424
0002c0 98 c7 29 3e 60 e6 60 bc 74 5d 56 3e 95 fd 19 3e
       0.16580045 -0.013726801 0.20934087 0.1503814
0002d0 0a 2d c1 38 d4 9b 33 be b5 22 06 be 6b b2 0d be
       9.211346e-05 -0.17539912 -0.13099177 -0.13837592
0002e0 70 95 16 3e ce 54 8b 3e d5 d2 17 3e 4b 2e 08 3e
       0.14705443 0.27213138 0.1482652 0.1329891
0002f0 86 b7 bd 3d 1d 02 0a be b8 e5 b1 bd 3e 78 f7 3d
       0.0926352 -0.13477369 -0.086863935 0.12083481
000300 a2 62 64 bd 29 74 45 3e 62 34 d1 3d a7 2a 34 be
       -0.055758126 0.19282593 0.10215069 -0.17594396
000310 38 e2 43 bd 44 55 00 3d cb bc 8c 3e 46 88 e0 3d
       -0.04782316 0.031331316 0.27487788 0.10963492
000320 90 3e 06 3d b7 a7 30 3e 3e 3d 79 3e d9 b3 19 3e
       0.032774508 0.17251478 0.24339768 0.15010013
000330 63 8d 25 3d 28 c1 d4 3c 18 42 02 bd 3e 71 dc bd
       0.04041804 0.02597101 -0.031801313 -0.10763787
000340 7b 32 87 3e 1c 8f b5 bd 10 c8 6b 3e 7a 52 62 3d
       0.264057 -0.088651866 0.23025537 0.055254437
000350 2f c6 e8 3d d0 10 fd 3c f0 3a 41 3d f6 6a e3 3d
       0.113659255 0.030891806 0.047175348 0.111043856
000360 08 6b 53 3c 15 ca fd 3c ae 2e 79 3e 98 83 20 3e
       0.012903936 0.03098015 0.24334213 0.15675199
000370 60 9a 45 3e 94 bb a9 bd 40 74 13 3b 76 ae ca 3d
       0.1929717 -0.08287731 0.002249971 0.09896557
000380 67 74 4f 3e 83 cf 7b 3e 59 e3 97 bd 0e ae 98 bd
       0.20259248 0.24590878 -0.0741641 -0.07455073
000390 84 18 31 be 82 e8 28 be 6a 09 68 3e 08 bc 01 3d
       -0.17294508 -0.16494945 0.22659841 0.03167346
0003a0 d0 ef a9 3d dd 68 89 3e c2 bb 8a bd fe 26 f5 3d
       0.08297694 0.26837817 -0.06774093 0.11970328
0003b0 4d d2 36 3b a0 33 93 3b 58 4d 9e bc 48 38 24 bd
       0.0027896345 0.004492238 -0.01932399 -0.040092736
0003c0 ac c7 7e bd 16 cd 5a bd 60 a2 0b bc 43 52 42 bb
       -0.06220214 -0.05341824 -0.0085226 -0.0029651083
0003d0 0d 4b 78 3e 55 50 0d 3e 96 db ee bd 72 5b 83 3d
       0.2424738 0.13800175 -0.116629764 0.06413926
0003e0 2c 94 4d 3e 15 32 95 3d 01 06 7f 3e c9 4a 6d 3c
       0.20076054 0.07284943 0.24904634 0.014483162
0003f0 d4 a5 13 3e 17 bf 0f be dd 76 1b be 9a d7 b4 3d
       0.14418727 -0.14037739 -0.15182061 0.08830185

linear_3.bias f4 [27]
000000 65 bd 33 3e a7 f2 cb 3d a6 73 8b 3e db 69 9e 3d
       0.17552717 0.09958392 0.2723667 0.07735034
000010 0c 66 35 3d 10 a1 cf 3d 7e 21 23 3d 81 3e 66 3c
       0.044286773 0.10138142 0.039826863 0.014052988
000020 03 25 87 3e 59 11 64 3e 1d 26 0f 3e 5a ae d6 3d
       0.26395425 0.22272243 0.13979383 0.10482474
000030 fc b8 10 be 29 7d 9d bd 23 d6 84 3c 3e de c9 bd
       -0.14133066 -0.07689888 0.01621539 -0.098568425
000040 67 e8 8b 3c bc bc eb bd 80 76 cb 3d 2e 61 c2 3d
       0.017078592 -0.115106076 0.099347115 0.09491192
000050 d9 e8 85 3e 85 e8 41 bc ab d5 08 bd fe bd 36 3d
       0.2615421 -0.011835222 -0.033406895 0.044614784
000060 70 21 53 3e 72 ab 46 3c 69 dd 8a bd
       0.20618224 0.012125837 -0.06780512
